…
I0906 16:06:00.973719  2127 net.cpp:322] The NetState phase (0) differed from the phase (1) specified by a rule in layer accuracy/top-5
I0906 16:06:00.973743  2127 net.cpp:57] Initializing net from parameters: 
name: "ResNet-50"
state {
  phase: TRAIN
  level: 0
  stage: ""
}
layer {
  name: "data"
  type: "Data"
  top: "data"
  top: "label"
  include {
    phase: TRAIN
  }
  transform_param {
    mirror: true
    crop_size: 224
    mean_file: "data/ilsvrc12/imagenet_mean.binaryproto"
  }
  data_param {
    source: "/home/xu/Image12/ilsvrc12_train_lmdb"
    batch_size: 16
    backend: LMDB
    prefetch: 2
  }
}
layer {
  name: "conv1"
  type: "Convolution"
  bottom: "data"
  top: "conv1"
  convolution_param {
    num_output: 64
    pad: 3
    kernel_size: 7
    stride: 2
    weight_filler {
      type: "xavier"
    }
    bias_filler {
      type: "constant"
      value: 0.2
    }
  }
}
layer {
  name: "bn_conv1"
  type: "BatchNorm"
  bottom: "conv1"
  top: "conv1"
  batch_norm_param {
    use_global_stats: true
  }
}
layer {
  name: "scale_conv1"
  type: "Scale"
  bottom: "conv1"
  top: "conv1"
  scale_param {
    bias_term: true
  }
}
layer {
  name: "conv1_relu"
  type: "ReLU"
  bottom: "conv1"
  top: "conv1"
}
layer {
  name: "pool1"
  type: "Pooling"
  bottom: "conv1"
  top: "pool1"
  pooling_param {
    pool: MAX
    kernel_size: 3
    stride: 2
  }
}
layer {
  name: "res2a_branch1"
  type: "Convolution"
  bottom: "pool1"
  top: "res2a_branch1"
  convolution_param {
    num_output: 256
    bias_term: false
    pad: 0
    kernel_size: 1
    stride: 1
  }
}
layer {
  name: "bn2a_branch1"
  type: "BatchNorm"
  bottom: "res2a_branch1"
  top: "res2a_branch1"
  batch_norm_param {
    use_global_stats: true
  }
}
layer {
  name: "scale2a_branch1"
  type: "Scale"
  bottom: "res2a_branch1"
  top: "res2a_branch1"
  scale_param {
    bias_term: true
  }
}
layer {
  name: "res2a_branch2a"
  type: "Convolution"
  bottom: "pool1"
  top: "res2a_branch2a"
  convolution_param {
    num_output: 64
    bias_term: false
    pad: 0
    kernel_size: 1
    stride: 1
  }
}
layer {
  name: "bn2a_branch2a"
  type: "BatchNorm"
  bottom: "res2a_branch2a"
  top: "res2a_branch2a"
  batch_norm_param {
    use_global_stats: true
  }
}
layer {
  name: "scale2a_branch2a"
  type: "Scale"
  bottom: "res2a_branch2a"
  top: "res2a_branch2a"
  scale_param {
    bias_term: true
  }
}
layer {
  name: "res2a_branch2a_relu"
  type: "ReLU"
  bottom: "res2a_branch2a"
  top: "res2a_branch2a"
}
layer {
  name: "res2a_branch2b"
  type: "Convolution"
  bottom: "res2a_branch2a"
  top: "res2a_branch2b"
  convolution_param {
    num_output: 64
    bias_term: false
    pad: 1
    kernel_size: 3
    stride: 1
  }
}
layer {
  name: "bn2a_branch2b"
  type: "BatchNorm"
  bottom: "res2a_branch2b"
  top: "res2a_branch2b"
  batch_norm_param {
    use_global_stats: true
  }
}
layer {
  name: "scale2a_branch2b"
  type: "Scale"
  bottom: "res2a_branch2b"
  top: "res2a_branch2b"
  scale_param {
    bias_term: true
  }
}
layer {
  name: "res2a_branch2b_relu"
  type: "ReLU"
  bottom: "res2a_branch2b"
  top: "res2a_branch2b"
}
layer {
  name: "res2a_branch2c"
  type: "Convolution"
  bottom: "res2a_branch2b"
  top: "res2a_branch2c"
  convolution_param {
    num_output: 256
    bias_term: false
    pad: 0
    kernel_size: 1
    stride: 1
  }
}
layer {
  name: "bn2a_branch2c"
  type: "BatchNorm"
  bottom: "res2a_branch2c"
  top: "res2a_branch2c"
  batch_norm_param {
    use_global_stats: true
  }
}
layer {
  name: "scale2a_branch2c"
  type: "Scale"
  bottom: "res2a_branch2c"
  top: "res2a_branch2c"
  scale_param {
    bias_term: true
  }
}
layer {
  name: "res2a"
  type: "Eltwise"
  bottom: "res2a_branch1"
  bottom: "res2a_branch2c"
  top: "res2a"
}
layer {
  name: "res2a_relu"
  type: "ReLU"
  bottom: "res2a"
  top: "res2a"
}
layer {
  name: "res2b_branch2a"
  type: "Convolution"
  bottom: "res2a"
  top: "res2b_branch2a"
  convolution_param {
    num_output: 64
    bias_term: false
    pad: 0
    kernel_size: 1
    stride: 1
  }
}
layer {
  name: "bn2b_branch2a"
  type: "BatchNorm"
  bottom: "res2b_branch2a"
  top: "res2b_branch2a"
  batch_norm_param {
    use_global_stats: true
  }
}
layer {
  name: "scale2b_branch2a"
  type: "Scale"
  bottom: "res2b_branch2a"
  top: "res2b_branch2a"
  scale_param {
    bias_term: true
  }
}
layer {
  name: "res2b_branch2a_relu"
  type: "ReLU"
  bottom: "res2b_branch2a"
  top: "res2b_branch2a"
}
layer {
  name: "res2b_branch2b"
  type: "Convolution"
  bottom: "res2b_branch2a"
  top: "res2b_branch2b"
  convolution_param {
    num_output: 64
    bias_term: false
    pad: 1
    kernel_size: 3
    stride: 1
  }
}
layer {
  name: "bn2b_branch2b"
  type: "BatchNorm"
  bottom: "res2b_branch2b"
  top: "res2b_branch2b"
  batch_norm_param {
    use_global_stats: true
  }
}
layer {
  name: "scale2b_branch2b"
  type: "Scale"
  bottom: "res2b_branch2b"
  top: "res2b_branch2b"
  scale_param {
    bias_term: true
  }
}
layer {
  name: "res2b_branch2b_relu"
  type: "ReLU"
  bottom: "res2b_branch2b"
  top: "res2b_branch2b"
}
layer {
  name: "res2b_branch2c"
  type: "Convolution"
  bottom: "res2b_branch2b"
  top: "res2b_branch2c"
  convolution_param {
    num_output: 256
    bias_term: false
    pad: 0
    kernel_size: 1
    stride: 1
  }
}
layer {
  name: "bn2b_branch2c"
  type: "BatchNorm"
  bottom: "res2b_branch2c"
  top: "res2b_branch2c"
  batch_norm_param {
    use_global_stats: true
  }
}
layer {
  name: "scale2b_branch2c"
  type: "Scale"
  bottom: "res2b_branch2c"
  top: "res2b_branch2c"
  scale_param {
    bias_term: true
  }
}
layer {
  name: "res2b"
  type: "Eltwise"
  bottom: "res2a"
  bottom: "res2b_branch2c"
  top: "res2b"
}
layer {
  name: "res2b_relu"
  type: "ReLU"
  bottom: "res2b"
  top: "res2b"
}
layer {
  name: "res2c_branch2a"
  type: "Convolution"
  bottom: "res2b"
  top: "res2c_branch2a"
  convolution_param {
    num_output: 64
    bias_term: false
    pad: 0
    kernel_size: 1
    stride: 1
  }
}
layer {
  name: "bn2c_branch2a"
  type: "BatchNorm"
  bottom: "res2c_branch2a"
  top: "res2c_branch2a"
  batch_norm_param {
    use_global_stats: true
  }
}
layer {
  name: "scale2c_branch2a"
  type: "Scale"
  bottom: "res2c_branch2a"
  top: "res2c_branch2a"
  scale_param {
    bias_term: true
  }
}
layer {
  name: "res2c_branch2a_relu"
  type: "ReLU"
  bottom: "res2c_branch2a"
  top: "res2c_branch2a"
}
layer {
  name: "res2c_branch2b"
  type: "Convolution"
  bottom: "res2c_branch2a"
  top: "res2c_branch2b"
  convolution_param {
    num_output: 64
    bias_term: false
    pad: 1
    kernel_size: 3
    stride: 1
  }
}
layer {
  name: "bn2c_branch2b"
  type: "BatchNorm"
  bottom: "res2c_branch2b"
  top: "res2c_branch2b"
  batch_norm_param {
    use_global_stats: true
  }
}
layer {
  name: "scale2c_branch2b"
  type: "Scale"
  bottom: "res2c_branch2b"
  top: "res2c_branch2b"
  scale_param {
    bias_term: true
  }
}
layer {
  name: "res2c_branch2b_relu"
  type: "ReLU"
  bottom: "res2c_branch2b"
  top: "res2c_branch2b"
}
layer {
  name: "res2c_branch2c"
  type: "Convolution"
  bottom: "res2c_branch2b"
  top: "res2c_branch2c"
  convolution_param {
    num_output: 256
    bias_term: false
    pad: 0
    kernel_size: 1
    stride: 1
  }
}
layer {
  name: "bn2c_branch2c"
  type: "BatchNorm"
  bottom: "res2c_branch2c"
  top: "res2c_branch2c"
  batch_norm_param {
    use_global_stats: true
  }
}
layer {
  name: "scale2c_branch2c"
  type: "Scale"
  bottom: "res2c_branch2c"
  top: "res2c_branch2c"
  scale_param {
    bias_term: true
  }
}
layer {
  name: "res2c"
  type: "Eltwise"
  bottom: "res2b"
  bottom: "res2c_branch2c"
  top: "res2c"
}
layer {
  name: "res2c_relu"
  type: "ReLU"
  bottom: "res2c"
  top: "res2c"
}
layer {
  name: "res3a_branch1"
  type: "Convolution"
  bottom: "res2c"
  top: "res3a_branch1"
  convolution_param {
    num_output: 512
    bias_term: false
    pad: 0
    kernel_size: 1
    stride: 2
  }
}
layer {
  name: "bn3a_branch1"
  type: "BatchNorm"
  bottom: "res3a_branch1"
  top: "res3a_branch1"
  batch_norm_param {
    use_global_stats: true
  }
}
layer {
  name: "scale3a_branch1"
  type: "Scale"
  bottom: "res3a_branch1"
  top: "res3a_branch1"
  scale_param {
    bias_term: true
  }
}
layer {
  name: "res3a_branch2a"
  type: "Convolution"
  bottom: "res2c"
  top: "res3a_branch2a"
  convolution_param {
    num_output: 128
    bias_term: false
    pad: 0
    kernel_size: 1
    stride: 2
  }
}
layer {
  name: "bn3a_branch2a"
  type: "BatchNorm"
  bottom: "res3a_branch2a"
  top: "res3a_branch2a"
  batch_norm_param {
    use_global_stats: true
  }
}
layer {
  name: "scale3a_branch2a"
  type: "Scale"
  bottom: "res3a_branch2a"
  top: "res3a_branch2a"
  scale_param {
    bias_term: true
  }
}
layer {
  name: "res3a_branch2a_relu"
  type: "ReLU"
  bottom: "res3a_branch2a"
  top: "res3a_branch2a"
}
layer {
  name: "res3a_branch2b"
  type: "Convolution"
  bottom: "res3a_branch2a"
  top: "res3a_branch2b"
  convolution_param {
    num_output: 128
    bias_term: false
    pad: 1
    kernel_size: 3
    stride: 1
  }
}
layer {
  name: "bn3a_branch2b"
  type: "BatchNorm"
  bottom: "res3a_branch2b"
  top: "res3a_branch2b"
  batch_norm_param {
    use_global_stats: true
  }
}
layer {
  name: "scale3a_branch2b"
  type: "Scale"
  bottom: "res3a_branch2b"
  top: "res3a_branch2b"
  scale_param {
    bias_term: true
  }
}
layer {
  name: "res3a_branch2b_relu"
  type: "ReLU"
  bottom: "res3a_branch2b"
  top: "res3a_branch2b"
}
layer {
  name: "res3a_branch2c"
  type: "Convolution"
  bottom: "res3a_branch2b"
  top: "res3a_branch2c"
  convolution_param {
    num_output: 512
    bias_term: false
    pad: 0
    kernel_size: 1
    stride: 1
  }
}
layer {
  name: "bn3a_branch2c"
  type: "BatchNorm"
  bottom: "res3a_branch2c"
  top: "res3a_branch2c"
  batch_norm_param {
    use_global_stats: true
  }
}
layer {
  name: "scale3a_branch2c"
  type: "Scale"
  bottom: "res3a_branch2c"
  top: "res3a_branch2c"
  scale_param {
    bias_term: true
  }
}
layer {
  name: "res3a"
  type: "Eltwise"
  bottom: "res3a_branch1"
  bottom: "res3a_branch2c"
  top: "res3a"
}
layer {
  name: "res3a_relu"
  type: "ReLU"
  bottom: "res3a"
  top: "res3a"
}
layer {
  name: "res3b_branch2a"
  type: "Convolution"
  bottom: "res3a"
  top: "res3b_branch2a"
  convolution_param {
    num_output: 128
    bias_term: false
    pad: 0
    kernel_size: 1
    stride: 1
  }
}
layer {
  name: "bn3b_branch2a"
  type: "BatchNorm"
  bottom: "res3b_branch2a"
  top: "res3b_branch2a"
  batch_norm_param {
    use_global_stats: true
  }
}
layer {
  name: "scale3b_branch2a"
  type: "Scale"
  bottom: "res3b_branch2a"
  top: "res3b_branch2a"
  scale_param {
    bias_term: true
  }
}
layer {
  name: "res3b_branch2a_relu"
  type: "ReLU"
  bottom: "res3b_branch2a"
  top: "res3b_branch2a"
}
layer {
  name: "res3b_branch2b"
  type: "Convolution"
  bottom: "res3b_branch2a"
  top: "res3b_branch2b"
  convolution_param {
    num_output: 128
    bias_term: false
    pad: 1
    kernel_size: 3
    stride: 1
  }
}
layer {
  name: "bn3b_branch2b"
  type: "BatchNorm"
  bottom: "res3b_branch2b"
  top: "res3b_branch2b"
  batch_norm_param {
    use_global_stats: true
  }
}
layer {
  name: "scale3b_branch2b"
  type: "Scale"
  bottom: "res3b_branch2b"
  top: "res3b_branch2b"
  scale_param {
    bias_term: true
  }
}
layer {
  name: "res3b_branch2b_relu"
  type: "ReLU"
  bottom: "res3b_branch2b"
  top: "res3b_branch2b"
}
layer {
  name: "res3b_branch2c"
  type: "Convolution"
  bottom: "res3b_branch2b"
  top: "res3b_branch2c"
  convolution_param {
    num_output: 512
    bias_term: false
    pad: 0
    kernel_size: 1
    stride: 1
  }
}
layer {
  name: "bn3b_branch2c"
  type: "BatchNorm"
  bottom: "res3b_branch2c"
  top: "res3b_branch2c"
  batch_norm_param {
    use_global_stats: true
  }
}
layer {
  name: "scale3b_branch2c"
  type: "Scale"
  bottom: "res3b_branch2c"
  top: "res3b_branch2c"
  scale_param {
    bias_term: true
  }
}
layer {
  name: "res3b"
  type: "Eltwise"
  bottom: "res3a"
  bottom: "res3b_branch2c"
  top: "res3b"
}
layer {
  name: "res3b_relu"
  type: "ReLU"
  bottom: "res3b"
  top: "res3b"
}
layer {
  name: "res3c_branch2a"
  type: "Convolution"
  bottom: "res3b"
  top: "res3c_branch2a"
  convolution_param {
    num_output: 128
    bias_term: false
    pad: 0
    kernel_size: 1
    stride: 1
  }
}
layer {
  name: "bn3c_branch2a"
  type: "BatchNorm"
  bottom: "res3c_branch2a"
  top: "res3c_branch2a"
  batch_norm_param {
    use_global_stats: true
  }
}
layer {
  name: "scale3c_branch2a"
  type: "Scale"
  bottom: "res3c_branch2a"
  top: "res3c_branch2a"
  scale_param {
    bias_term: true
  }
}
layer {
  name: "res3c_branch2a_relu"
  type: "ReLU"
  bottom: "res3c_branch2a"
  top: "res3c_branch2a"
}
layer {
  name: "res3c_branch2b"
  type: "Convolution"
  bottom: "res3c_branch2a"
  top: "res3c_branch2b"
  convolution_param {
    num_output: 128
    bias_term: false
    pad: 1
    kernel_size: 3
    stride: 1
  }
}
layer {
  name: "bn3c_branch2b"
  type: "BatchNorm"
  bottom: "res3c_branch2b"
  top: "res3c_branch2b"
  batch_norm_param {
    use_global_stats: true
  }
}
layer {
  name: "scale3c_branch2b"
  type: "Scale"
  bottom: "res3c_branch2b"
  top: "res3c_branch2b"
  scale_param {
    bias_term: true
  }
}
layer {
  name: "res3c_branch2b_relu"
  type: "ReLU"
  bottom: "res3c_branch2b"
  top: "res3c_branch2b"
}
layer {
  name: "res3c_branch2c"
  type: "Convolution"
  bottom: "res3c_branch2b"
  top: "res3c_branch2c"
  convolution_param {
    num_output: 512
    bias_term: false
    pad: 0
    kernel_size: 1
    stride: 1
  }
}
layer {
  name: "bn3c_branch2c"
  type: "BatchNorm"
  bottom: "res3c_branch2c"
  top: "res3c_branch2c"
  batch_norm_param {
    use_global_stats: true
  }
}
layer {
  name: "scale3c_branch2c"
  type: "Scale"
  bottom: "res3c_branch2c"
  top: "res3c_branch2c"
  scale_param {
    bias_term: true
  }
}
layer {
  name: "res3c"
  type: "Eltwise"
  bottom: "res3b"
  bottom: "res3c_branch2c"
  top: "res3c"
}
layer {
  name: "res3c_relu"
  type: "ReLU"
  bottom: "res3c"
  top: "res3c"
}
layer {
  name: "res3d_branch2a"
  type: "Convolution"
  bottom: "res3c"
  top: "res3d_branch2a"
  convolution_param {
    num_output: 128
    bias_term: false
    pad: 0
    kernel_size: 1
    stride: 1
  }
}
layer {
  name: "bn3d_branch2a"
  type: "BatchNorm"
  bottom: "res3d_branch2a"
  top: "res3d_branch2a"
  batch_norm_param {
    use_global_stats: true
  }
}
layer {
  name: "scale3d_branch2a"
  type: "Scale"
  bottom: "res3d_branch2a"
  top: "res3d_branch2a"
  scale_param {
    bias_term: true
  }
}
layer {
  name: "res3d_branch2a_relu"
  type: "ReLU"
  bottom: "res3d_branch2a"
  top: "res3d_branch2a"
}
layer {
  name: "res3d_branch2b"
  type: "Convolution"
  bottom: "res3d_branch2a"
  top: "res3d_branch2b"
  convolution_param {
    num_output: 128
    bias_term: false
    pad: 1
    kernel_size: 3
    stride: 1
  }
}
layer {
  name: "bn3d_branch2b"
  type: "BatchNorm"
  bottom: "res3d_branch2b"
  top: "res3d_branch2b"
  batch_norm_param {
    use_global_stats: true
  }
}
layer {
  name: "scale3d_branch2b"
  type: "Scale"
  bottom: "res3d_branch2b"
  top: "res3d_branch2b"
  scale_param {
    bias_term: true
  }
}
layer {
  name: "res3d_branch2b_relu"
  type: "ReLU"
  bottom: "res3d_branch2b"
  top: "res3d_branch2b"
}
layer {
  name: "res3d_branch2c"
  type: "Convolution"
  bottom: "res3d_branch2b"
  top: "res3d_branch2c"
  convolution_param {
    num_output: 512
    bias_term: false
    pad: 0
    kernel_size: 1
    stride: 1
  }
}
layer {
  name: "bn3d_branch2c"
  type: "BatchNorm"
  bottom: "res3d_branch2c"
  top: "res3d_branch2c"
  batch_norm_param {
    use_global_stats: true
  }
}
layer {
  name: "scale3d_branch2c"
  type: "Scale"
  bottom: "res3d_branch2c"
  top: "res3d_branch2c"
  scale_param {
    bias_term: true
  }
}
layer {
  name: "res3d"
  type: "Eltwise"
  bottom: "res3c"
  bottom: "res3d_branch2c"
  top: "res3d"
}
layer {
  name: "res3d_relu"
  type: "ReLU"
  bottom: "res3d"
  top: "res3d"
}
layer {
  name: "res4a_branch1"
  type: "Convolution"
  bottom: "res3d"
  top: "res4a_branch1"
  convolution_param {
    num_output: 1024
    bias_term: false
    pad: 0
    kernel_size: 1
    stride: 2
  }
}
layer {
  name: "bn4a_branch1"
  type: "BatchNorm"
  bottom: "res4a_branch1"
  top: "res4a_branch1"
  batch_norm_param {
    use_global_stats: true
  }
}
layer {
  name: "scale4a_branch1"
  type: "Scale"
  bottom: "res4a_branch1"
  top: "res4a_branch1"
  scale_param {
    bias_term: true
  }
}
layer {
  name: "res4a_branch2a"
  type: "Convolution"
  bottom: "res3d"
  top: "res4a_branch2a"
  convolution_param {
    num_output: 256
    bias_term: false
    pad: 0
    kernel_size: 1
    stride: 2
  }
}
layer {
  name: "bn4a_branch2a"
  type: "BatchNorm"
  bottom: "res4a_branch2a"
  top: "res4a_branch2a"
  batch_norm_param {
    use_global_stats: true
  }
}
layer {
  name: "scale4a_branch2a"
  type: "Scale"
  bottom: "res4a_branch2a"
  top: "res4a_branch2a"
  scale_param {
    bias_term: true
  }
}
layer {
  name: "res4a_branch2a_relu"
  type: "ReLU"
  bottom: "res4a_branch2a"
  top: "res4a_branch2a"
}
layer {
  name: "res4a_branch2b"
  type: "Convolution"
  bottom: "res4a_branch2a"
  top: "res4a_branch2b"
  convolution_param {
    num_output: 256
    bias_term: false
    pad: 1
    kernel_size: 3
    stride: 1
  }
}
layer {
  name: "bn4a_branch2b"
  type: "BatchNorm"
  bottom: "res4a_branch2b"
  top: "res4a_branch2b"
  batch_norm_param {
    use_global_stats: true
  }
}
layer {
  name: "scale4a_branch2b"
  type: "Scale"
  bottom: "res4a_branch2b"
  top: "res4a_branch2b"
  scale_param {
    bias_term: true
  }
}
layer {
  name: "res4a_branch2b_relu"
  type: "ReLU"
  bottom: "res4a_branch2b"
  top: "res4a_branch2b"
}
layer {
  name: "res4a_branch2c"
  type: "Convolution"
  bottom: "res4a_branch2b"
  top: "res4a_branch2c"
  convolution_param {
    num_output: 1024
    bias_term: false
    pad: 0
    kernel_size: 1
    stride: 1
  }
}
layer {
  name: "bn4a_branch2c"
  type: "BatchNorm"
  bottom: "res4a_branch2c"
  top: "res4a_branch2c"
  batch_norm_param {
    use_global_stats: true
  }
}
layer {
  name: "scale4a_branch2c"
  type: "Scale"
  bottom: "res4a_branch2c"
  top: "res4a_branch2c"
  scale_param {
    bias_term: true
  }
}
layer {
  name: "res4a"
  type: "Eltwise"
  bottom: "res4a_branch1"
  bottom: "res4a_branch2c"
  top: "res4a"
}
layer {
  name: "res4a_relu"
  type: "ReLU"
  bottom: "res4a"
  top: "res4a"
}
layer {
  name: "res4b_branch2a"
  type: "Convolution"
  bottom: "res4a"
  top: "res4b_branch2a"
  convolution_param {
    num_output: 256
    bias_term: false
    pad: 0
    kernel_size: 1
    stride: 1
  }
}
layer {
  name: "bn4b_branch2a"
  type: "BatchNorm"
  bottom: "res4b_branch2a"
  top: "res4b_branch2a"
  batch_norm_param {
    use_global_stats: true
  }
}
layer {
  name: "scale4b_branch2a"
  type: "Scale"
  bottom: "res4b_branch2a"
  top: "res4b_branch2a"
  scale_param {
    bias_term: true
  }
}
layer {
  name: "res4b_branch2a_relu"
  type: "ReLU"
  bottom: "res4b_branch2a"
  top: "res4b_branch2a"
}
layer {
  name: "res4b_branch2b"
  type: "Convolution"
  bottom: "res4b_branch2a"
  top: "res4b_branch2b"
  convolution_param {
    num_output: 256
    bias_term: false
    pad: 1
    kernel_size: 3
    stride: 1
  }
}
layer {
  name: "bn4b_branch2b"
  type: "BatchNorm"
  bottom: "res4b_branch2b"
  top: "res4b_branch2b"
  batch_norm_param {
    use_global_stats: true
  }
}
layer {
  name: "scale4b_branch2b"
  type: "Scale"
  bottom: "res4b_branch2b"
  top: "res4b_branch2b"
  scale_param {
    bias_term: true
  }
}
layer {
  name: "res4b_branch2b_relu"
  type: "ReLU"
  bottom: "res4b_branch2b"
  top: "res4b_branch2b"
}
layer {
  name: "res4b_branch2c"
  type: "Convolution"
  bottom: "res4b_branch2b"
  top: "res4b_branch2c"
  convolution_param {
    num_output: 1024
    bias_term: false
    pad: 0
    kernel_size: 1
    stride: 1
  }
}
layer {
  name: "bn4b_branch2c"
  type: "BatchNorm"
  bottom: "res4b_branch2c"
  top: "res4b_branch2c"
  batch_norm_param {
    use_global_stats: true
  }
}
layer {
  name: "scale4b_branch2c"
  type: "Scale"
  bottom: "res4b_branch2c"
  top: "res4b_branch2c"
  scale_param {
    bias_term: true
  }
}
layer {
  name: "res4b"
  type: "Eltwise"
  bottom: "res4a"
  bottom: "res4b_branch2c"
  top: "res4b"
}
layer {
  name: "res4b_relu"
  type: "ReLU"
  bottom: "res4b"
  top: "res4b"
}
layer {
  name: "res4c_branch2a"
  type: "Convolution"
  bottom: "res4b"
  top: "res4c_branch2a"
  convolution_param {
    num_output: 256
    bias_term: false
    pad: 0
    kernel_size: 1
    stride: 1
  }
}
layer {
  name: "bn4c_branch2a"
  type: "BatchNorm"
  bottom: "res4c_branch2a"
  top: "res4c_branch2a"
  batch_norm_param {
    use_global_stats: true
  }
}
layer {
  name: "scale4c_branch2a"
  type: "Scale"
  bottom: "res4c_branch2a"
  top: "res4c_branch2a"
  scale_param {
    bias_term: true
  }
}
layer {
  name: "res4c_branch2a_relu"
  type: "ReLU"
  bottom: "res4c_branch2a"
  top: "res4c_branch2a"
}
layer {
  name: "res4c_branch2b"
  type: "Convolution"
  bottom: "res4c_branch2a"
  top: "res4c_branch2b"
  convolution_param {
    num_output: 256
    bias_term: false
    pad: 1
    kernel_size: 3
    stride: 1
  }
}
layer {
  name: "bn4c_branch2b"
  type: "BatchNorm"
  bottom: "res4c_branch2b"
  top: "res4c_branch2b"
  batch_norm_param {
    use_global_stats: true
  }
}
layer {
  name: "scale4c_branch2b"
  type: "Scale"
  bottom: "res4c_branch2b"
  top: "res4c_branch2b"
  scale_param {
    bias_term: true
  }
}
layer {
  name: "res4c_branch2b_relu"
  type: "ReLU"
  bottom: "res4c_branch2b"
  top: "res4c_branch2b"
}
layer {
  name: "res4c_branch2c"
  type: "Convolution"
  bottom: "res4c_branch2b"
  top: "res4c_branch2c"
  convolution_param {
    num_output: 1024
    bias_term: false
    pad: 0
    kernel_size: 1
    stride: 1
  }
}
layer {
  name: "bn4c_branch2c"
  type: "BatchNorm"
  bottom: "res4c_branch2c"
  top: "res4c_branch2c"
  batch_norm_param {
    use_global_stats: true
  }
}
layer {
  name: "scale4c_branch2c"
  type: "Scale"
  bottom: "res4c_branch2c"
  top: "res4c_branch2c"
  scale_param {
    bias_term: true
  }
}
layer {
  name: "res4c"
  type: "Eltwise"
  bottom: "res4b"
  bottom: "res4c_branch2c"
  top: "res4c"
}
layer {
  name: "res4c_relu"
  type: "ReLU"
  bottom: "res4c"
  top: "res4c"
}
layer {
  name: "res4d_branch2a"
  type: "Convolution"
  bottom: "res4c"
  top: "res4d_branch2a"
  convolution_param {
    num_output: 256
    bias_term: false
    pad: 0
    kernel_size: 1
    stride: 1
  }
}
layer {
  name: "bn4d_branch2a"
  type: "BatchNorm"
  bottom: "res4d_branch2a"
  top: "res4d_branch2a"
  batch_norm_param {
    use_global_stats: true
  }
}
layer {
  name: "scale4d_branch2a"
  type: "Scale"
  bottom: "res4d_branch2a"
  top: "res4d_branch2a"
  scale_param {
    bias_term: true
  }
}
layer {
  name: "res4d_branch2a_relu"
  type: "ReLU"
  bottom: "res4d_branch2a"
  top: "res4d_branch2a"
}
layer {
  name: "res4d_branch2b"
  type: "Convolution"
  bottom: "res4d_branch2a"
  top: "res4d_branch2b"
  convolution_param {
    num_output: 256
    bias_term: false
    pad: 1
    kernel_size: 3
    stride: 1
  }
}
layer {
  name: "bn4d_branch2b"
  type: "BatchNorm"
  bottom: "res4d_branch2b"
  top: "res4d_branch2b"
  batch_norm_param {
    use_global_stats: true
  }
}
layer {
  name: "scale4d_branch2b"
  type: "Scale"
  bottom: "res4d_branch2b"
  top: "res4d_branch2b"
  scale_param {
    bias_term: true
  }
}
layer {
  name: "res4d_branch2b_relu"
  type: "ReLU"
  bottom: "res4d_branch2b"
  top: "res4d_branch2b"
}
layer {
  name: "res4d_branch2c"
  type: "Convolution"
  bottom: "res4d_branch2b"
  top: "res4d_branch2c"
  convolution_param {
    num_output: 1024
    bias_term: false
    pad: 0
    kernel_size: 1
    stride: 1
  }
}
layer {
  name: "bn4d_branch2c"
  type: "BatchNorm"
  bottom: "res4d_branch2c"
  top: "res4d_branch2c"
  batch_norm_param {
    use_global_stats: true
  }
}
layer {
  name: "scale4d_branch2c"
  type: "Scale"
  bottom: "res4d_branch2c"
  top: "res4d_branch2c"
  scale_param {
    bias_term: true
  }
}
layer {
  name: "res4d"
  type: "Eltwise"
  bottom: "res4c"
  bottom: "res4d_branch2c"
  top: "res4d"
}
layer {
  name: "res4d_relu"
  type: "ReLU"
  bottom: "res4d"
  top: "res4d"
}
layer {
  name: "res4e_branch2a"
  type: "Convolution"
  bottom: "res4d"
  top: "res4e_branch2a"
  convolution_param {
    num_output: 256
    bias_term: false
    pad: 0
    kernel_size: 1
    stride: 1
  }
}
layer {
  name: "bn4e_branch2a"
  type: "BatchNorm"
  bottom: "res4e_branch2a"
  top: "res4e_branch2a"
  batch_norm_param {
    use_global_stats: true
  }
}
layer {
  name: "scale4e_branch2a"
  type: "Scale"
  bottom: "res4e_branch2a"
  top: "res4e_branch2a"
  scale_param {
    bias_term: true
  }
}
layer {
  name: "res4e_branch2a_relu"
  type: "ReLU"
  bottom: "res4e_branch2a"
  top: "res4e_branch2a"
}
layer {
  name: "res4e_branch2b"
  type: "Convolution"
  bottom: "res4e_branch2a"
  top: "res4e_branch2b"
  convolution_param {
    num_output: 256
    bias_term: false
    pad: 1
    kernel_size: 3
    stride: 1
  }
}
layer {
  name: "bn4e_branch2b"
  type: "BatchNorm"
  bottom: "res4e_branch2b"
  top: "res4e_branch2b"
  batch_norm_param {
    use_global_stats: true
  }
}
layer {
  name: "scale4e_branch2b"
  type: "Scale"
  bottom: "res4e_branch2b"
  top: "res4e_branch2b"
  scale_param {
    bias_term: true
  }
}
layer {
  name: "res4e_branch2b_relu"
  type: "ReLU"
  bottom: "res4e_branch2b"
  top: "res4e_branch2b"
}
layer {
  name: "res4e_branch2c"
  type: "Convolution"
  bottom: "res4e_branch2b"
  top: "res4e_branch2c"
  convolution_param {
    num_output: 1024
    bias_term: false
    pad: 0
    kernel_size: 1
    stride: 1
  }
}
layer {
  name: "bn4e_branch2c"
  type: "BatchNorm"
  bottom: "res4e_branch2c"
  top: "res4e_branch2c"
  batch_norm_param {
    use_global_stats: true
  }
}
layer {
  name: "scale4e_branch2c"
  type: "Scale"
  bottom: "res4e_branch2c"
  top: "res4e_branch2c"
  scale_param {
    bias_term: true
  }
}
layer {
  name: "res4e"
  type: "Eltwise"
  bottom: "res4d"
  bottom: "res4e_branch2c"
  top: "res4e"
}
layer {
  name: "res4e_relu"
  type: "ReLU"
  bottom: "res4e"
  top: "res4e"
}
layer {
  name: "res4f_branch2a"
  type: "Convolution"
  bottom: "res4e"
  top: "res4f_branch2a"
  convolution_param {
    num_output: 256
    bias_term: false
    pad: 0
    kernel_size: 1
    stride: 1
  }
}
layer {
  name: "bn4f_branch2a"
  type: "BatchNorm"
  bottom: "res4f_branch2a"
  top: "res4f_branch2a"
  batch_norm_param {
    use_global_stats: true
  }
}
layer {
  name: "scale4f_branch2a"
  type: "Scale"
  bottom: "res4f_branch2a"
  top: "res4f_branch2a"
  scale_param {
    bias_term: true
  }
}
layer {
  name: "res4f_branch2a_relu"
  type: "ReLU"
  bottom: "res4f_branch2a"
  top: "res4f_branch2a"
}
layer {
  name: "res4f_branch2b"
  type: "Convolution"
  bottom: "res4f_branch2a"
  top: "res4f_branch2b"
  convolution_param {
    num_output: 256
    bias_term: false
    pad: 1
    kernel_size: 3
    stride: 1
  }
}
layer {
  name: "bn4f_branch2b"
  type: "BatchNorm"
  bottom: "res4f_branch2b"
  top: "res4f_branch2b"
  batch_norm_param {
    use_global_stats: true
  }
}
layer {
  name: "scale4f_branch2b"
  type: "Scale"
  bottom: "res4f_branch2b"
  top: "res4f_branch2b"
  scale_param {
    bias_term: true
  }
}
layer {
  name: "res4f_branch2b_relu"
  type: "ReLU"
  bottom: "res4f_branch2b"
  top: "res4f_branch2b"
}
layer {
  name: "res4f_branch2c"
  type: "Convolution"
  bottom: "res4f_branch2b"
  top: "res4f_branch2c"
  convolution_param {
    num_output: 1024
    bias_term: false
    pad: 0
    kernel_size: 1
    stride: 1
  }
}
layer {
  name: "bn4f_branch2c"
  type: "BatchNorm"
  bottom: "res4f_branch2c"
  top: "res4f_branch2c"
  batch_norm_param {
    use_global_stats: true
  }
}
layer {
  name: "scale4f_branch2c"
  type: "Scale"
  bottom: "res4f_branch2c"
  top: "res4f_branch2c"
  scale_param {
    bias_term: true
  }
}
layer {
  name: "res4f"
  type: "Eltwise"
  bottom: "res4e"
  bottom: "res4f_branch2c"
  top: "res4f"
}
layer {
  name: "res4f_relu"
  type: "ReLU"
  bottom: "res4f"
  top: "res4f"
}
layer {
  name: "res5a_branch1"
  type: "Convolution"
  bottom: "res4f"
  top: "res5a_branch1"
  convolution_param {
    num_output: 2048
    bias_term: false
    pad: 0
    kernel_size: 1
    stride: 2
  }
}
layer {
  name: "bn5a_branch1"
  type: "BatchNorm"
  bottom: "res5a_branch1"
  top: "res5a_branch1"
  batch_norm_param {
    use_global_stats: true
  }
}
layer {
  name: "scale5a_branch1"
  type: "Scale"
  bottom: "res5a_branch1"
  top: "res5a_branch1"
  scale_param {
    bias_term: true
  }
}
layer {
  name: "res5a_branch2a"
  type: "Convolution"
  bottom: "res4f"
  top: "res5a_branch2a"
  convolution_param {
    num_output: 512
    bias_term: false
    pad: 0
    kernel_size: 1
    stride: 2
  }
}
layer {
  name: "bn5a_branch2a"
  type: "BatchNorm"
  bottom: "res5a_branch2a"
  top: "res5a_branch2a"
  batch_norm_param {
    use_global_stats: true
  }
}
layer {
  name: "scale5a_branch2a"
  type: "Scale"
  bottom: "res5a_branch2a"
  top: "res5a_branch2a"
  scale_param {
    bias_term: true
  }
}
layer {
  name: "res5a_branch2a_relu"
  type: "ReLU"
  bottom: "res5a_branch2a"
  top: "res5a_branch2a"
}
layer {
  name: "res5a_branch2b"
  type: "Convolution"
  bottom: "res5a_branch2a"
  top: "res5a_branch2b"
  convolution_param {
    num_output: 512
    bias_term: false
    pad: 1
    kernel_size: 3
    stride: 1
  }
}
layer {
  name: "bn5a_branch2b"
  type: "BatchNorm"
  bottom: "res5a_branch2b"
  top: "res5a_branch2b"
  batch_norm_param {
    use_global_stats: true
  }
}
layer {
  name: "scale5a_branch2b"
  type: "Scale"
  bottom: "res5a_branch2b"
  top: "res5a_branch2b"
  scale_param {
    bias_term: true
  }
}
layer {
  name: "res5a_branch2b_relu"
  type: "ReLU"
  bottom: "res5a_branch2b"
  top: "res5a_branch2b"
}
layer {
  name: "res5a_branch2c"
  type: "Convolution"
  bottom: "res5a_branch2b"
  top: "res5a_branch2c"
  convolution_param {
    num_output: 2048
    bias_term: false
    pa
I0906 16:06:00.980191  2127 layer_factory.cpp:67] Creating layer data
I0906 16:06:00.983482  2127 db_lmdb.cpp:40] Opened lmdb /home/xu/Image12/ilsvrc12_train_lmdb
I0906 16:06:00.984660  2127 net.cpp:96] Creating Layer data
I0906 16:06:00.984727  2127 net.cpp:413] data -> data
I0906 16:06:00.984977  2127 net.cpp:413] data -> label
I0906 16:06:00.985076  2127 data_transformer.cpp:27] Loading mean file from: data/ilsvrc12/imagenet_mean.binaryproto
I0906 16:06:01.017670  2127 data_layer.cpp:46] output data size: 16,3,224,224
I0906 16:06:01.121083  2127 base_data_layer.cpp:73] Initializing prefetch
I0906 16:06:01.121361  2127 base_data_layer.cpp:76] Prefetch initialized.
I0906 16:06:01.121397  2127 net.cpp:134] Setting up data
I0906 16:06:01.121539  2127 net.cpp:142] Top shape: 16 3 224 224 (2408448)
I0906 16:06:01.121577  2127 net.cpp:142] Top shape: 16 (16)
I0906 16:06:01.121598  2127 net.cpp:153] Memory required for data: 9633856
I0906 16:06:01.121688  2127 layer_factory.cpp:67] Creating layer conv1
I0906 16:06:01.121771  2127 net.cpp:96] Creating Layer conv1
I0906 16:06:01.121817  2127 net.cpp:444] conv1 <- data
I0906 16:06:01.121927  2127 net.cpp:413] conv1 -> conv1
I0906 16:06:01.124436  2127 net.cpp:134] Setting up conv1
I0906 16:06:01.124490  2127 net.cpp:142] Top shape: 16 64 112 112 (12845056)
I0906 16:06:01.124516  2127 net.cpp:153] Memory required for data: 61014080
I0906 16:06:01.124691  2127 layer_factory.cpp:67] Creating layer bn_conv1
I0906 16:06:01.124759  2127 net.cpp:96] Creating Layer bn_conv1
I0906 16:06:01.124788  2127 net.cpp:444] bn_conv1 <- conv1
I0906 16:06:01.124836  2127 net.cpp:400] bn_conv1 -> conv1 (in-place)
I0906 16:06:01.125141  2127 net.cpp:134] Setting up bn_conv1
I0906 16:06:01.125171  2127 net.cpp:142] Top shape: 16 64 112 112 (12845056)
I0906 16:06:01.125210  2127 net.cpp:153] Memory required for data: 112394304
I0906 16:06:01.125339  2127 layer_factory.cpp:67] Creating layer scale_conv1
I0906 16:06:01.125397  2127 net.cpp:96] Creating Layer scale_conv1
I0906 16:06:01.125424  2127 net.cpp:444] scale_conv1 <- conv1
I0906 16:06:01.125469  2127 net.cpp:400] scale_conv1 -> conv1 (in-place)
I0906 16:06:01.125576  2127 layer_factory.cpp:67] Creating layer scale_conv1
I0906 16:06:01.125944  2127 net.cpp:134] Setting up scale_conv1
I0906 16:06:01.125975  2127 net.cpp:142] Top shape: 16 64 112 112 (12845056)
I0906 16:06:01.125998  2127 net.cpp:153] Memory required for data: 163774528
I0906 16:06:01.126055  2127 layer_factory.cpp:67] Creating layer conv1_relu
I0906 16:06:01.126116  2127 net.cpp:96] Creating Layer conv1_relu
I0906 16:06:01.126142  2127 net.cpp:444] conv1_relu <- conv1
I0906 16:06:01.126188  2127 net.cpp:400] conv1_relu -> conv1 (in-place)
I0906 16:06:01.126230  2127 net.cpp:134] Setting up conv1_relu
I0906 16:06:01.126250  2127 net.cpp:142] Top shape: 16 64 112 112 (12845056)
I0906 16:06:01.126271  2127 net.cpp:153] Memory required for data: 215154752
I0906 16:06:01.126307  2127 layer_factory.cpp:67] Creating layer pool1
I0906 16:06:01.126361  2127 net.cpp:96] Creating Layer pool1
I0906 16:06:01.126386  2127 net.cpp:444] pool1 <- conv1
I0906 16:06:01.126433  2127 net.cpp:413] pool1 -> pool1
I0906 16:06:01.126633  2127 net.cpp:134] Setting up pool1
I0906 16:06:01.126688  2127 net.cpp:142] Top shape: 16 64 56 56 (3211264)
I0906 16:06:01.126714  2127 net.cpp:153] Memory required for data: 227999808
I0906 16:06:01.126760  2127 layer_factory.cpp:67] Creating layer pool1_pool1_0_split
I0906 16:06:01.126808  2127 net.cpp:96] Creating Layer pool1_pool1_0_split
I0906 16:06:01.126835  2127 net.cpp:444] pool1_pool1_0_split <- pool1
I0906 16:06:01.126885  2127 net.cpp:413] pool1_pool1_0_split -> pool1_pool1_0_split_0
I0906 16:06:01.126952  2127 net.cpp:413] pool1_pool1_0_split -> pool1_pool1_0_split_1
I0906 16:06:01.127015  2127 net.cpp:134] Setting up pool1_pool1_0_split
I0906 16:06:01.127040  2127 net.cpp:142] Top shape: 16 64 56 56 (3211264)
I0906 16:06:01.127065  2127 net.cpp:142] Top shape: 16 64 56 56 (3211264)
I0906 16:06:01.127085  2127 net.cpp:153] Memory required for data: 253689920
I0906 16:06:01.127125  2127 layer_factory.cpp:67] Creating layer res2a_branch1
I0906 16:06:01.127171  2127 net.cpp:96] Creating Layer res2a_branch1
I0906 16:06:01.127197  2127 net.cpp:444] res2a_branch1 <- pool1_pool1_0_split_0
I0906 16:06:01.127245  2127 net.cpp:413] res2a_branch1 -> res2a_branch1
I0906 16:06:01.127523  2127 net.cpp:134] Setting up res2a_branch1
I0906 16:06:01.127554  2127 net.cpp:142] Top shape: 16 256 56 56 (12845056)
I0906 16:06:01.127576  2127 net.cpp:153] Memory required for data: 305070144
I0906 16:06:01.127627  2127 layer_factory.cpp:67] Creating layer bn2a_branch1
I0906 16:06:01.127679  2127 net.cpp:96] Creating Layer bn2a_branch1
I0906 16:06:01.127705  2127 net.cpp:444] bn2a_branch1 <- res2a_branch1
I0906 16:06:01.127749  2127 net.cpp:400] bn2a_branch1 -> res2a_branch1 (in-place)
I0906 16:06:01.127888  2127 net.cpp:134] Setting up bn2a_branch1
I0906 16:06:01.127910  2127 net.cpp:142] Top shape: 16 256 56 56 (12845056)
I0906 16:06:01.127931  2127 net.cpp:153] Memory required for data: 356450368
I0906 16:06:01.128021  2127 layer_factory.cpp:67] Creating layer scale2a_branch1
I0906 16:06:01.128065  2127 net.cpp:96] Creating Layer scale2a_branch1
I0906 16:06:01.128089  2127 net.cpp:444] scale2a_branch1 <- res2a_branch1
I0906 16:06:01.128131  2127 net.cpp:400] scale2a_branch1 -> res2a_branch1 (in-place)
I0906 16:06:01.128212  2127 layer_factory.cpp:67] Creating layer scale2a_branch1
I0906 16:06:01.128386  2127 net.cpp:134] Setting up scale2a_branch1
I0906 16:06:01.128410  2127 net.cpp:142] Top shape: 16 256 56 56 (12845056)
I0906 16:06:01.128432  2127 net.cpp:153] Memory required for data: 407830592
I0906 16:06:01.128487  2127 layer_factory.cpp:67] Creating layer res2a_branch2a
I0906 16:06:01.128540  2127 net.cpp:96] Creating Layer res2a_branch2a
I0906 16:06:01.128576  2127 net.cpp:444] res2a_branch2a <- pool1_pool1_0_split_1
I0906 16:06:01.128625  2127 net.cpp:413] res2a_branch2a -> res2a_branch2a
I0906 16:06:01.128804  2127 net.cpp:134] Setting up res2a_branch2a
I0906 16:06:01.128832  2127 net.cpp:142] Top shape: 16 64 56 56 (3211264)
I0906 16:06:01.128854  2127 net.cpp:153] Memory required for data: 420675648
I0906 16:06:01.128901  2127 layer_factory.cpp:67] Creating layer bn2a_branch2a
I0906 16:06:01.128942  2127 net.cpp:96] Creating Layer bn2a_branch2a
I0906 16:06:01.128968  2127 net.cpp:444] bn2a_branch2a <- res2a_branch2a
I0906 16:06:01.129010  2127 net.cpp:400] bn2a_branch2a -> res2a_branch2a (in-place)
I0906 16:06:01.129148  2127 net.cpp:134] Setting up bn2a_branch2a
I0906 16:06:01.129169  2127 net.cpp:142] Top shape: 16 64 56 56 (3211264)
I0906 16:06:01.129190  2127 net.cpp:153] Memory required for data: 433520704
I0906 16:06:01.129282  2127 layer_factory.cpp:67] Creating layer scale2a_branch2a
I0906 16:06:01.129325  2127 net.cpp:96] Creating Layer scale2a_branch2a
I0906 16:06:01.129350  2127 net.cpp:444] scale2a_branch2a <- res2a_branch2a
I0906 16:06:01.129392  2127 net.cpp:400] scale2a_branch2a -> res2a_branch2a (in-place)
I0906 16:06:01.129470  2127 layer_factory.cpp:67] Creating layer scale2a_branch2a
I0906 16:06:01.129642  2127 net.cpp:134] Setting up scale2a_branch2a
I0906 16:06:01.129667  2127 net.cpp:142] Top shape: 16 64 56 56 (3211264)
I0906 16:06:01.129688  2127 net.cpp:153] Memory required for data: 446365760
I0906 16:06:01.129739  2127 layer_factory.cpp:67] Creating layer res2a_branch2a_relu
I0906 16:06:01.129776  2127 net.cpp:96] Creating Layer res2a_branch2a_relu
I0906 16:06:01.129801  2127 net.cpp:444] res2a_branch2a_relu <- res2a_branch2a
I0906 16:06:01.129844  2127 net.cpp:400] res2a_branch2a_relu -> res2a_branch2a (in-place)
I0906 16:06:01.129886  2127 net.cpp:134] Setting up res2a_branch2a_relu
I0906 16:06:01.129904  2127 net.cpp:142] Top shape: 16 64 56 56 (3211264)
I0906 16:06:01.129925  2127 net.cpp:153] Memory required for data: 459210816
I0906 16:06:01.129959  2127 layer_factory.cpp:67] Creating layer res2a_branch2b
I0906 16:06:01.130003  2127 net.cpp:96] Creating Layer res2a_branch2b
I0906 16:06:01.130028  2127 net.cpp:444] res2a_branch2b <- res2a_branch2a
I0906 16:06:01.130074  2127 net.cpp:413] res2a_branch2b -> res2a_branch2b
I0906 16:06:01.130517  2127 net.cpp:134] Setting up res2a_branch2b
I0906 16:06:01.130551  2127 net.cpp:142] Top shape: 16 64 56 56 (3211264)
I0906 16:06:01.130574  2127 net.cpp:153] Memory required for data: 472055872
I0906 16:06:01.130625  2127 layer_factory.cpp:67] Creating layer bn2a_branch2b
I0906 16:06:01.130668  2127 net.cpp:96] Creating Layer bn2a_branch2b
I0906 16:06:01.130693  2127 net.cpp:444] bn2a_branch2b <- res2a_branch2b
I0906 16:06:01.130738  2127 net.cpp:400] bn2a_branch2b -> res2a_branch2b (in-place)
I0906 16:06:01.130877  2127 net.cpp:134] Setting up bn2a_branch2b
I0906 16:06:01.130897  2127 net.cpp:142] Top shape: 16 64 56 56 (3211264)
I0906 16:06:01.130918  2127 net.cpp:153] Memory required for data: 484900928
I0906 16:06:01.130985  2127 layer_factory.cpp:67] Creating layer scale2a_branch2b
I0906 16:06:01.131038  2127 net.cpp:96] Creating Layer scale2a_branch2b
I0906 16:06:01.131063  2127 net.cpp:444] scale2a_branch2b <- res2a_branch2b
I0906 16:06:01.131108  2127 net.cpp:400] scale2a_branch2b -> res2a_branch2b (in-place)
I0906 16:06:01.131186  2127 layer_factory.cpp:67] Creating layer scale2a_branch2b
I0906 16:06:01.131357  2127 net.cpp:134] Setting up scale2a_branch2b
I0906 16:06:01.131381  2127 net.cpp:142] Top shape: 16 64 56 56 (3211264)
I0906 16:06:01.131402  2127 net.cpp:153] Memory required for data: 497745984
I0906 16:06:01.131453  2127 layer_factory.cpp:67] Creating layer res2a_branch2b_relu
I0906 16:06:01.131492  2127 net.cpp:96] Creating Layer res2a_branch2b_relu
I0906 16:06:01.131517  2127 net.cpp:444] res2a_branch2b_relu <- res2a_branch2b
I0906 16:06:01.131564  2127 net.cpp:400] res2a_branch2b_relu -> res2a_branch2b (in-place)
I0906 16:06:01.131618  2127 net.cpp:134] Setting up res2a_branch2b_relu
I0906 16:06:01.131637  2127 net.cpp:142] Top shape: 16 64 56 56 (3211264)
I0906 16:06:01.131659  2127 net.cpp:153] Memory required for data: 510591040
I0906 16:06:01.131693  2127 layer_factory.cpp:67] Creating layer res2a_branch2c
I0906 16:06:01.131738  2127 net.cpp:96] Creating Layer res2a_branch2c
I0906 16:06:01.131762  2127 net.cpp:444] res2a_branch2c <- res2a_branch2b
I0906 16:06:01.131808  2127 net.cpp:413] res2a_branch2c -> res2a_branch2c
I0906 16:06:01.132082  2127 net.cpp:134] Setting up res2a_branch2c
I0906 16:06:01.132112  2127 net.cpp:142] Top shape: 16 256 56 56 (12845056)
I0906 16:06:01.132134  2127 net.cpp:153] Memory required for data: 561971264
I0906 16:06:01.132184  2127 layer_factory.cpp:67] Creating layer bn2a_branch2c
I0906 16:06:01.132226  2127 net.cpp:96] Creating Layer bn2a_branch2c
I0906 16:06:01.132251  2127 net.cpp:444] bn2a_branch2c <- res2a_branch2c
I0906 16:06:01.132294  2127 net.cpp:400] bn2a_branch2c -> res2a_branch2c (in-place)
I0906 16:06:01.132431  2127 net.cpp:134] Setting up bn2a_branch2c
I0906 16:06:01.132452  2127 net.cpp:142] Top shape: 16 256 56 56 (12845056)
I0906 16:06:01.132473  2127 net.cpp:153] Memory required for data: 613351488
I0906 16:06:01.132540  2127 layer_factory.cpp:67] Creating layer scale2a_branch2c
I0906 16:06:01.132581  2127 net.cpp:96] Creating Layer scale2a_branch2c
I0906 16:06:01.132606  2127 net.cpp:444] scale2a_branch2c <- res2a_branch2c
I0906 16:06:01.132648  2127 net.cpp:400] scale2a_branch2c -> res2a_branch2c (in-place)
I0906 16:06:01.132728  2127 layer_factory.cpp:67] Creating layer scale2a_branch2c
I0906 16:06:01.132920  2127 net.cpp:134] Setting up scale2a_branch2c
I0906 16:06:01.132948  2127 net.cpp:142] Top shape: 16 256 56 56 (12845056)
I0906 16:06:01.132969  2127 net.cpp:153] Memory required for data: 664731712
I0906 16:06:01.133023  2127 layer_factory.cpp:67] Creating layer res2a
I0906 16:06:01.133072  2127 net.cpp:96] Creating Layer res2a
I0906 16:06:01.133098  2127 net.cpp:444] res2a <- res2a_branch1
I0906 16:06:01.133133  2127 net.cpp:444] res2a <- res2a_branch2c
I0906 16:06:01.133174  2127 net.cpp:413] res2a -> res2a
I0906 16:06:01.133278  2127 net.cpp:134] Setting up res2a
I0906 16:06:01.133304  2127 net.cpp:142] Top shape: 16 256 56 56 (12845056)
I0906 16:06:01.133327  2127 net.cpp:153] Memory required for data: 716111936
I0906 16:06:01.133363  2127 layer_factory.cpp:67] Creating layer res2a_relu
I0906 16:06:01.133400  2127 net.cpp:96] Creating Layer res2a_relu
I0906 16:06:01.133424  2127 net.cpp:444] res2a_relu <- res2a
I0906 16:06:01.133467  2127 net.cpp:400] res2a_relu -> res2a (in-place)
I0906 16:06:01.133507  2127 net.cpp:134] Setting up res2a_relu
I0906 16:06:01.133527  2127 net.cpp:142] Top shape: 16 256 56 56 (12845056)
I0906 16:06:01.133546  2127 net.cpp:153] Memory required for data: 767492160
I0906 16:06:01.133577  2127 layer_factory.cpp:67] Creating layer res2a_res2a_relu_0_split
I0906 16:06:01.133615  2127 net.cpp:96] Creating Layer res2a_res2a_relu_0_split
I0906 16:06:01.133637  2127 net.cpp:444] res2a_res2a_relu_0_split <- res2a
I0906 16:06:01.133682  2127 net.cpp:413] res2a_res2a_relu_0_split -> res2a_res2a_relu_0_split_0
I0906 16:06:01.133734  2127 net.cpp:413] res2a_res2a_relu_0_split -> res2a_res2a_relu_0_split_1
I0906 16:06:01.133791  2127 net.cpp:134] Setting up res2a_res2a_relu_0_split
I0906 16:06:01.133814  2127 net.cpp:142] Top shape: 16 256 56 56 (12845056)
I0906 16:06:01.133837  2127 net.cpp:142] Top shape: 16 256 56 56 (12845056)
I0906 16:06:01.133857  2127 net.cpp:153] Memory required for data: 870252608
I0906 16:06:01.133893  2127 layer_factory.cpp:67] Creating layer res2b_branch2a
I0906 16:06:01.133937  2127 net.cpp:96] Creating Layer res2b_branch2a
I0906 16:06:01.133961  2127 net.cpp:444] res2b_branch2a <- res2a_res2a_relu_0_split_0
I0906 16:06:01.134009  2127 net.cpp:413] res2b_branch2a -> res2b_branch2a
I0906 16:06:01.134284  2127 net.cpp:134] Setting up res2b_branch2a
I0906 16:06:01.134317  2127 net.cpp:142] Top shape: 16 64 56 56 (3211264)
I0906 16:06:01.134351  2127 net.cpp:153] Memory required for data: 883097664
I0906 16:06:01.134402  2127 layer_factory.cpp:67] Creating layer bn2b_branch2a
I0906 16:06:01.134444  2127 net.cpp:96] Creating Layer bn2b_branch2a
I0906 16:06:01.134469  2127 net.cpp:444] bn2b_branch2a <- res2b_branch2a
I0906 16:06:01.134513  2127 net.cpp:400] bn2b_branch2a -> res2b_branch2a (in-place)
I0906 16:06:01.134649  2127 net.cpp:134] Setting up bn2b_branch2a
I0906 16:06:01.134671  2127 net.cpp:142] Top shape: 16 64 56 56 (3211264)
I0906 16:06:01.134692  2127 net.cpp:153] Memory required for data: 895942720
I0906 16:06:01.134791  2127 layer_factory.cpp:67] Creating layer scale2b_branch2a
I0906 16:06:01.134835  2127 net.cpp:96] Creating Layer scale2b_branch2a
I0906 16:06:01.134858  2127 net.cpp:444] scale2b_branch2a <- res2b_branch2a
I0906 16:06:01.134901  2127 net.cpp:400] scale2b_branch2a -> res2b_branch2a (in-place)
I0906 16:06:01.134979  2127 layer_factory.cpp:67] Creating layer scale2b_branch2a
I0906 16:06:01.135151  2127 net.cpp:134] Setting up scale2b_branch2a
I0906 16:06:01.135176  2127 net.cpp:142] Top shape: 16 64 56 56 (3211264)
I0906 16:06:01.135196  2127 net.cpp:153] Memory required for data: 908787776
I0906 16:06:01.135248  2127 layer_factory.cpp:67] Creating layer res2b_branch2a_relu
I0906 16:06:01.135288  2127 net.cpp:96] Creating Layer res2b_branch2a_relu
I0906 16:06:01.135313  2127 net.cpp:444] res2b_branch2a_relu <- res2b_branch2a
I0906 16:06:01.135355  2127 net.cpp:400] res2b_branch2a_relu -> res2b_branch2a (in-place)
I0906 16:06:01.135396  2127 net.cpp:134] Setting up res2b_branch2a_relu
I0906 16:06:01.135416  2127 net.cpp:142] Top shape: 16 64 56 56 (3211264)
I0906 16:06:01.135437  2127 net.cpp:153] Memory required for data: 921632832
I0906 16:06:01.135471  2127 layer_factory.cpp:67] Creating layer res2b_branch2b
I0906 16:06:01.135514  2127 net.cpp:96] Creating Layer res2b_branch2b
I0906 16:06:01.135538  2127 net.cpp:444] res2b_branch2b <- res2b_branch2a
I0906 16:06:01.135637  2127 net.cpp:413] res2b_branch2b -> res2b_branch2b
I0906 16:06:01.136076  2127 net.cpp:134] Setting up res2b_branch2b
I0906 16:06:01.136112  2127 net.cpp:142] Top shape: 16 64 56 56 (3211264)
I0906 16:06:01.136132  2127 net.cpp:153] Memory required for data: 934477888
I0906 16:06:01.136183  2127 layer_factory.cpp:67] Creating layer bn2b_branch2b
I0906 16:06:01.136222  2127 net.cpp:96] Creating Layer bn2b_branch2b
I0906 16:06:01.136247  2127 net.cpp:444] bn2b_branch2b <- res2b_branch2b
I0906 16:06:01.136288  2127 net.cpp:400] bn2b_branch2b -> res2b_branch2b (in-place)
I0906 16:06:01.136413  2127 net.cpp:134] Setting up bn2b_branch2b
I0906 16:06:01.136432  2127 net.cpp:142] Top shape: 16 64 56 56 (3211264)
I0906 16:06:01.136451  2127 net.cpp:153] Memory required for data: 947322944
I0906 16:06:01.136512  2127 layer_factory.cpp:67] Creating layer scale2b_branch2b
I0906 16:06:01.136549  2127 net.cpp:96] Creating Layer scale2b_branch2b
I0906 16:06:01.136572  2127 net.cpp:444] scale2b_branch2b <- res2b_branch2b
I0906 16:06:01.136610  2127 net.cpp:400] scale2b_branch2b -> res2b_branch2b (in-place)
I0906 16:06:01.136682  2127 layer_factory.cpp:67] Creating layer scale2b_branch2b
I0906 16:06:01.136837  2127 net.cpp:134] Setting up scale2b_branch2b
I0906 16:06:01.136859  2127 net.cpp:142] Top shape: 16 64 56 56 (3211264)
I0906 16:06:01.136878  2127 net.cpp:153] Memory required for data: 960168000
I0906 16:06:01.136925  2127 layer_factory.cpp:67] Creating layer res2b_branch2b_relu
I0906 16:06:01.136960  2127 net.cpp:96] Creating Layer res2b_branch2b_relu
I0906 16:06:01.136981  2127 net.cpp:444] res2b_branch2b_relu <- res2b_branch2b
I0906 16:06:01.137020  2127 net.cpp:400] res2b_branch2b_relu -> res2b_branch2b (in-place)
I0906 16:06:01.137058  2127 net.cpp:134] Setting up res2b_branch2b_relu
I0906 16:06:01.137074  2127 net.cpp:142] Top shape: 16 64 56 56 (3211264)
I0906 16:06:01.137092  2127 net.cpp:153] Memory required for data: 973013056
I0906 16:06:01.137125  2127 layer_factory.cpp:67] Creating layer res2b_branch2c
I0906 16:06:01.137183  2127 net.cpp:96] Creating Layer res2b_branch2c
I0906 16:06:01.137215  2127 net.cpp:444] res2b_branch2c <- res2b_branch2b
I0906 16:06:01.137260  2127 net.cpp:413] res2b_branch2c -> res2b_branch2c
I0906 16:06:01.137511  2127 net.cpp:134] Setting up res2b_branch2c
I0906 16:06:01.137538  2127 net.cpp:142] Top shape: 16 256 56 56 (12845056)
I0906 16:06:01.137558  2127 net.cpp:153] Memory required for data: 1024393280
I0906 16:06:01.137603  2127 layer_factory.cpp:67] Creating layer bn2b_branch2c
I0906 16:06:01.137641  2127 net.cpp:96] Creating Layer bn2b_branch2c
I0906 16:06:01.137665  2127 net.cpp:444] bn2b_branch2c <- res2b_branch2c
I0906 16:06:01.137704  2127 net.cpp:400] bn2b_branch2c -> res2b_branch2c (in-place)
I0906 16:06:01.137828  2127 net.cpp:134] Setting up bn2b_branch2c
I0906 16:06:01.137847  2127 net.cpp:142] Top shape: 16 256 56 56 (12845056)
I0906 16:06:01.137866  2127 net.cpp:153] Memory required for data: 1075773504
I0906 16:06:01.137926  2127 layer_factory.cpp:67] Creating layer scale2b_branch2c
I0906 16:06:01.137964  2127 net.cpp:96] Creating Layer scale2b_branch2c
I0906 16:06:01.137986  2127 net.cpp:444] scale2b_branch2c <- res2b_branch2c
I0906 16:06:01.138025  2127 net.cpp:400] scale2b_branch2c -> res2b_branch2c (in-place)
I0906 16:06:01.138098  2127 layer_factory.cpp:67] Creating layer scale2b_branch2c
I0906 16:06:01.138252  2127 net.cpp:134] Setting up scale2b_branch2c
I0906 16:06:01.138275  2127 net.cpp:142] Top shape: 16 256 56 56 (12845056)
I0906 16:06:01.138294  2127 net.cpp:153] Memory required for data: 1127153728
I0906 16:06:01.138341  2127 layer_factory.cpp:67] Creating layer res2b
I0906 16:06:01.138376  2127 net.cpp:96] Creating Layer res2b
I0906 16:06:01.138399  2127 net.cpp:444] res2b <- res2a_res2a_relu_0_split_1
I0906 16:06:01.138429  2127 net.cpp:444] res2b <- res2b_branch2c
I0906 16:06:01.138466  2127 net.cpp:413] res2b -> res2b
I0906 16:06:01.138530  2127 net.cpp:134] Setting up res2b
I0906 16:06:01.138552  2127 net.cpp:142] Top shape: 16 256 56 56 (12845056)
I0906 16:06:01.138571  2127 net.cpp:153] Memory required for data: 1178533952
I0906 16:06:01.138602  2127 layer_factory.cpp:67] Creating layer res2b_relu
I0906 16:06:01.138635  2127 net.cpp:96] Creating Layer res2b_relu
I0906 16:06:01.138656  2127 net.cpp:444] res2b_relu <- res2b
I0906 16:06:01.138694  2127 net.cpp:400] res2b_relu -> res2b (in-place)
I0906 16:06:01.138730  2127 net.cpp:134] Setting up res2b_relu
I0906 16:06:01.138746  2127 net.cpp:142] Top shape: 16 256 56 56 (12845056)
I0906 16:06:01.138764  2127 net.cpp:153] Memory required for data: 1229914176
I0906 16:06:01.138793  2127 layer_factory.cpp:67] Creating layer res2b_res2b_relu_0_split
I0906 16:06:01.138828  2127 net.cpp:96] Creating Layer res2b_res2b_relu_0_split
I0906 16:06:01.138849  2127 net.cpp:444] res2b_res2b_relu_0_split <- res2b
I0906 16:06:01.138886  2127 net.cpp:413] res2b_res2b_relu_0_split -> res2b_res2b_relu_0_split_0
I0906 16:06:01.138934  2127 net.cpp:413] res2b_res2b_relu_0_split -> res2b_res2b_relu_0_split_1
I0906 16:06:01.138985  2127 net.cpp:134] Setting up res2b_res2b_relu_0_split
I0906 16:06:01.139006  2127 net.cpp:142] Top shape: 16 256 56 56 (12845056)
I0906 16:06:01.139027  2127 net.cpp:142] Top shape: 16 256 56 56 (12845056)
I0906 16:06:01.139045  2127 net.cpp:153] Memory required for data: 1332674624
I0906 16:06:01.139078  2127 layer_factory.cpp:67] Creating layer res2c_branch2a
I0906 16:06:01.139118  2127 net.cpp:96] Creating Layer res2c_branch2a
I0906 16:06:01.139140  2127 net.cpp:444] res2c_branch2a <- res2b_res2b_relu_0_split_0
I0906 16:06:01.139183  2127 net.cpp:413] res2c_branch2a -> res2c_branch2a
I0906 16:06:01.139428  2127 net.cpp:134] Setting up res2c_branch2a
I0906 16:06:01.139456  2127 net.cpp:142] Top shape: 16 64 56 56 (3211264)
I0906 16:06:01.139475  2127 net.cpp:153] Memory required for data: 1345519680
I0906 16:06:01.139520  2127 layer_factory.cpp:67] Creating layer bn2c_branch2a
I0906 16:06:01.139559  2127 net.cpp:96] Creating Layer bn2c_branch2a
I0906 16:06:01.139585  2127 net.cpp:444] bn2c_branch2a <- res2c_branch2a
I0906 16:06:01.139636  2127 net.cpp:400] bn2c_branch2a -> res2c_branch2a (in-place)
I0906 16:06:01.139761  2127 net.cpp:134] Setting up bn2c_branch2a
I0906 16:06:01.139781  2127 net.cpp:142] Top shape: 16 64 56 56 (3211264)
I0906 16:06:01.139799  2127 net.cpp:153] Memory required for data: 1358364736
I0906 16:06:01.139860  2127 layer_factory.cpp:67] Creating layer scale2c_branch2a
I0906 16:06:01.139899  2127 net.cpp:96] Creating Layer scale2c_branch2a
I0906 16:06:01.139921  2127 net.cpp:444] scale2c_branch2a <- res2c_branch2a
I0906 16:06:01.139959  2127 net.cpp:400] scale2c_branch2a -> res2c_branch2a (in-place)
I0906 16:06:01.140030  2127 layer_factory.cpp:67] Creating layer scale2c_branch2a
I0906 16:06:01.140185  2127 net.cpp:134] Setting up scale2c_branch2a
I0906 16:06:01.140208  2127 net.cpp:142] Top shape: 16 64 56 56 (3211264)
I0906 16:06:01.140226  2127 net.cpp:153] Memory required for data: 1371209792
I0906 16:06:01.140272  2127 layer_factory.cpp:67] Creating layer res2c_branch2a_relu
I0906 16:06:01.140307  2127 net.cpp:96] Creating Layer res2c_branch2a_relu
I0906 16:06:01.140329  2127 net.cpp:444] res2c_branch2a_relu <- res2c_branch2a
I0906 16:06:01.140368  2127 net.cpp:400] res2c_branch2a_relu -> res2c_branch2a (in-place)
I0906 16:06:01.140409  2127 net.cpp:134] Setting up res2c_branch2a_relu
I0906 16:06:01.140425  2127 net.cpp:142] Top shape: 16 64 56 56 (3211264)
I0906 16:06:01.140444  2127 net.cpp:153] Memory required for data: 1384054848
I0906 16:06:01.140477  2127 layer_factory.cpp:67] Creating layer res2c_branch2b
I0906 16:06:01.140517  2127 net.cpp:96] Creating Layer res2c_branch2b
I0906 16:06:01.140538  2127 net.cpp:444] res2c_branch2b <- res2c_branch2a
I0906 16:06:01.140580  2127 net.cpp:413] res2c_branch2b -> res2c_branch2b
I0906 16:06:01.140972  2127 net.cpp:134] Setting up res2c_branch2b
I0906 16:06:01.141003  2127 net.cpp:142] Top shape: 16 64 56 56 (3211264)
I0906 16:06:01.141022  2127 net.cpp:153] Memory required for data: 1396899904
I0906 16:06:01.141070  2127 layer_factory.cpp:67] Creating layer bn2c_branch2b
I0906 16:06:01.141109  2127 net.cpp:96] Creating Layer bn2c_branch2b
I0906 16:06:01.141132  2127 net.cpp:444] bn2c_branch2b <- res2c_branch2b
I0906 16:06:01.141173  2127 net.cpp:400] bn2c_branch2b -> res2c_branch2b (in-place)
I0906 16:06:01.141297  2127 net.cpp:134] Setting up bn2c_branch2b
I0906 16:06:01.141316  2127 net.cpp:142] Top shape: 16 64 56 56 (3211264)
I0906 16:06:01.141335  2127 net.cpp:153] Memory required for data: 1409744960
I0906 16:06:01.141396  2127 layer_factory.cpp:67] Creating layer scale2c_branch2b
I0906 16:06:01.141434  2127 net.cpp:96] Creating Layer scale2c_branch2b
I0906 16:06:01.141456  2127 net.cpp:444] scale2c_branch2b <- res2c_branch2b
I0906 16:06:01.141495  2127 net.cpp:400] scale2c_branch2b -> res2c_branch2b (in-place)
I0906 16:06:01.141567  2127 layer_factory.cpp:67] Creating layer scale2c_branch2b
I0906 16:06:01.141721  2127 net.cpp:134] Setting up scale2c_branch2b
I0906 16:06:01.141743  2127 net.cpp:142] Top shape: 16 64 56 56 (3211264)
I0906 16:06:01.141762  2127 net.cpp:153] Memory required for data: 1422590016
I0906 16:06:01.141808  2127 layer_factory.cpp:67] Creating layer res2c_branch2b_relu
I0906 16:06:01.141844  2127 net.cpp:96] Creating Layer res2c_branch2b_relu
I0906 16:06:01.141865  2127 net.cpp:444] res2c_branch2b_relu <- res2c_branch2b
I0906 16:06:01.141903  2127 net.cpp:400] res2c_branch2b_relu -> res2c_branch2b (in-place)
I0906 16:06:01.141940  2127 net.cpp:134] Setting up res2c_branch2b_relu
I0906 16:06:01.141957  2127 net.cpp:142] Top shape: 16 64 56 56 (3211264)
I0906 16:06:01.141975  2127 net.cpp:153] Memory required for data: 1435435072
I0906 16:06:01.142006  2127 layer_factory.cpp:67] Creating layer res2c_branch2c
I0906 16:06:01.142046  2127 net.cpp:96] Creating Layer res2c_branch2c
I0906 16:06:01.142067  2127 net.cpp:444] res2c_branch2c <- res2c_branch2b
I0906 16:06:01.142108  2127 net.cpp:413] res2c_branch2c -> res2c_branch2c
I0906 16:06:01.142355  2127 net.cpp:134] Setting up res2c_branch2c
I0906 16:06:01.142386  2127 net.cpp:142] Top shape: 16 256 56 56 (12845056)
I0906 16:06:01.142415  2127 net.cpp:153] Memory required for data: 1486815296
I0906 16:06:01.142462  2127 layer_factory.cpp:67] Creating layer bn2c_branch2c
I0906 16:06:01.142500  2127 net.cpp:96] Creating Layer bn2c_branch2c
I0906 16:06:01.142524  2127 net.cpp:444] bn2c_branch2c <- res2c_branch2c
I0906 16:06:01.142563  2127 net.cpp:400] bn2c_branch2c -> res2c_branch2c (in-place)
I0906 16:06:01.142688  2127 net.cpp:134] Setting up bn2c_branch2c
I0906 16:06:01.142706  2127 net.cpp:142] Top shape: 16 256 56 56 (12845056)
I0906 16:06:01.142725  2127 net.cpp:153] Memory required for data: 1538195520
I0906 16:06:01.142832  2127 layer_factory.cpp:67] Creating layer scale2c_branch2c
I0906 16:06:01.142871  2127 net.cpp:96] Creating Layer scale2c_branch2c
I0906 16:06:01.142910  2127 net.cpp:444] scale2c_branch2c <- res2c_branch2c
I0906 16:06:01.142956  2127 net.cpp:400] scale2c_branch2c -> res2c_branch2c (in-place)
I0906 16:06:01.143033  2127 layer_factory.cpp:67] Creating layer scale2c_branch2c
I0906 16:06:01.143188  2127 net.cpp:134] Setting up scale2c_branch2c
I0906 16:06:01.143210  2127 net.cpp:142] Top shape: 16 256 56 56 (12845056)
I0906 16:06:01.143229  2127 net.cpp:153] Memory required for data: 1589575744
I0906 16:06:01.143277  2127 layer_factory.cpp:67] Creating layer res2c
I0906 16:06:01.143312  2127 net.cpp:96] Creating Layer res2c
I0906 16:06:01.143334  2127 net.cpp:444] res2c <- res2b_res2b_relu_0_split_1
I0906 16:06:01.143366  2127 net.cpp:444] res2c <- res2c_branch2c
I0906 16:06:01.143404  2127 net.cpp:413] res2c -> res2c
I0906 16:06:01.143457  2127 net.cpp:134] Setting up res2c
I0906 16:06:01.143479  2127 net.cpp:142] Top shape: 16 256 56 56 (12845056)
I0906 16:06:01.143498  2127 net.cpp:153] Memory required for data: 1640955968
I0906 16:06:01.143527  2127 layer_factory.cpp:67] Creating layer res2c_relu
I0906 16:06:01.143561  2127 net.cpp:96] Creating Layer res2c_relu
I0906 16:06:01.143582  2127 net.cpp:444] res2c_relu <- res2c
I0906 16:06:01.143620  2127 net.cpp:400] res2c_relu -> res2c (in-place)
I0906 16:06:01.143657  2127 net.cpp:134] Setting up res2c_relu
I0906 16:06:01.143673  2127 net.cpp:142] Top shape: 16 256 56 56 (12845056)
I0906 16:06:01.143692  2127 net.cpp:153] Memory required for data: 1692336192
I0906 16:06:01.143720  2127 layer_factory.cpp:67] Creating layer res2c_res2c_relu_0_split
I0906 16:06:01.143754  2127 net.cpp:96] Creating Layer res2c_res2c_relu_0_split
I0906 16:06:01.143774  2127 net.cpp:444] res2c_res2c_relu_0_split <- res2c
I0906 16:06:01.143813  2127 net.cpp:413] res2c_res2c_relu_0_split -> res2c_res2c_relu_0_split_0
I0906 16:06:01.143862  2127 net.cpp:413] res2c_res2c_relu_0_split -> res2c_res2c_relu_0_split_1
I0906 16:06:01.143913  2127 net.cpp:134] Setting up res2c_res2c_relu_0_split
I0906 16:06:01.143934  2127 net.cpp:142] Top shape: 16 256 56 56 (12845056)
I0906 16:06:01.143954  2127 net.cpp:142] Top shape: 16 256 56 56 (12845056)
I0906 16:06:01.143971  2127 net.cpp:153] Memory required for data: 1795096640
I0906 16:06:01.144004  2127 layer_factory.cpp:67] Creating layer res3a_branch1
I0906 16:06:01.144044  2127 net.cpp:96] Creating Layer res3a_branch1
I0906 16:06:01.144067  2127 net.cpp:444] res3a_branch1 <- res2c_res2c_relu_0_split_0
I0906 16:06:01.144109  2127 net.cpp:413] res3a_branch1 -> res3a_branch1
I0906 16:06:01.145170  2127 net.cpp:134] Setting up res3a_branch1
I0906 16:06:01.145210  2127 net.cpp:142] Top shape: 16 512 28 28 (6422528)
I0906 16:06:01.145231  2127 net.cpp:153] Memory required for data: 1820786752
I0906 16:06:01.145283  2127 layer_factory.cpp:67] Creating layer bn3a_branch1
I0906 16:06:01.145323  2127 net.cpp:96] Creating Layer bn3a_branch1
I0906 16:06:01.145349  2127 net.cpp:444] bn3a_branch1 <- res3a_branch1
I0906 16:06:01.145390  2127 net.cpp:400] bn3a_branch1 -> res3a_branch1 (in-place)
I0906 16:06:01.145501  2127 net.cpp:134] Setting up bn3a_branch1
I0906 16:06:01.145519  2127 net.cpp:142] Top shape: 16 512 28 28 (6422528)
I0906 16:06:01.145539  2127 net.cpp:153] Memory required for data: 1846476864
I0906 16:06:01.145604  2127 layer_factory.cpp:67] Creating layer scale3a_branch1
I0906 16:06:01.145655  2127 net.cpp:96] Creating Layer scale3a_branch1
I0906 16:06:01.145679  2127 net.cpp:444] scale3a_branch1 <- res3a_branch1
I0906 16:06:01.145718  2127 net.cpp:400] scale3a_branch1 -> res3a_branch1 (in-place)
I0906 16:06:01.145794  2127 layer_factory.cpp:67] Creating layer scale3a_branch1
I0906 16:06:01.145918  2127 net.cpp:134] Setting up scale3a_branch1
I0906 16:06:01.145939  2127 net.cpp:142] Top shape: 16 512 28 28 (6422528)
I0906 16:06:01.145958  2127 net.cpp:153] Memory required for data: 1872166976
I0906 16:06:01.146008  2127 layer_factory.cpp:67] Creating layer res3a_branch2a
I0906 16:06:01.146049  2127 net.cpp:96] Creating Layer res3a_branch2a
I0906 16:06:01.146073  2127 net.cpp:444] res3a_branch2a <- res2c_res2c_relu_0_split_1
I0906 16:06:01.146116  2127 net.cpp:413] res3a_branch2a -> res3a_branch2a
I0906 16:06:01.146479  2127 net.cpp:134] Setting up res3a_branch2a
I0906 16:06:01.146510  2127 net.cpp:142] Top shape: 16 128 28 28 (1605632)
I0906 16:06:01.146530  2127 net.cpp:153] Memory required for data: 1878589504
I0906 16:06:01.146577  2127 layer_factory.cpp:67] Creating layer bn3a_branch2a
I0906 16:06:01.146616  2127 net.cpp:96] Creating Layer bn3a_branch2a
I0906 16:06:01.146641  2127 net.cpp:444] bn3a_branch2a <- res3a_branch2a
I0906 16:06:01.146680  2127 net.cpp:400] bn3a_branch2a -> res3a_branch2a (in-place)
I0906 16:06:01.146788  2127 net.cpp:134] Setting up bn3a_branch2a
I0906 16:06:01.146807  2127 net.cpp:142] Top shape: 16 128 28 28 (1605632)
I0906 16:06:01.146826  2127 net.cpp:153] Memory required for data: 1885012032
I0906 16:06:01.146885  2127 layer_factory.cpp:67] Creating layer scale3a_branch2a
I0906 16:06:01.146924  2127 net.cpp:96] Creating Layer scale3a_branch2a
I0906 16:06:01.146945  2127 net.cpp:444] scale3a_branch2a <- res3a_branch2a
I0906 16:06:01.146984  2127 net.cpp:400] scale3a_branch2a -> res3a_branch2a (in-place)
I0906 16:06:01.147056  2127 layer_factory.cpp:67] Creating layer scale3a_branch2a
I0906 16:06:01.147176  2127 net.cpp:134] Setting up scale3a_branch2a
I0906 16:06:01.147197  2127 net.cpp:142] Top shape: 16 128 28 28 (1605632)
I0906 16:06:01.147215  2127 net.cpp:153] Memory required for data: 1891434560
I0906 16:06:01.147260  2127 layer_factory.cpp:67] Creating layer res3a_branch2a_relu
I0906 16:06:01.147295  2127 net.cpp:96] Creating Layer res3a_branch2a_relu
I0906 16:06:01.147317  2127 net.cpp:444] res3a_branch2a_relu <- res3a_branch2a
I0906 16:06:01.147356  2127 net.cpp:400] res3a_branch2a_relu -> res3a_branch2a (in-place)
I0906 16:06:01.147393  2127 net.cpp:134] Setting up res3a_branch2a_relu
I0906 16:06:01.147409  2127 net.cpp:142] Top shape: 16 128 28 28 (1605632)
I0906 16:06:01.147428  2127 net.cpp:153] Memory required for data: 1897857088
I0906 16:06:01.147460  2127 layer_factory.cpp:67] Creating layer res3a_branch2b
I0906 16:06:01.147500  2127 net.cpp:96] Creating Layer res3a_branch2b
I0906 16:06:01.147521  2127 net.cpp:444] res3a_branch2b <- res3a_branch2a
I0906 16:06:01.147563  2127 net.cpp:413] res3a_branch2b -> res3a_branch2b
I0906 16:06:01.148737  2127 net.cpp:134] Setting up res3a_branch2b
I0906 16:06:01.148777  2127 net.cpp:142] Top shape: 16 128 28 28 (1605632)
I0906 16:06:01.148798  2127 net.cpp:153] Memory required for data: 1904279616
I0906 16:06:01.148850  2127 layer_factory.cpp:67] Creating layer bn3a_branch2b
I0906 16:06:01.148890  2127 net.cpp:96] Creating Layer bn3a_branch2b
I0906 16:06:01.148916  2127 net.cpp:444] bn3a_branch2b <- res3a_branch2b
I0906 16:06:01.148957  2127 net.cpp:400] bn3a_branch2b -> res3a_branch2b (in-place)
I0906 16:06:01.149067  2127 net.cpp:134] Setting up bn3a_branch2b
I0906 16:06:01.149086  2127 net.cpp:142] Top shape: 16 128 28 28 (1605632)
I0906 16:06:01.149106  2127 net.cpp:153] Memory required for data: 1910702144
I0906 16:06:01.149166  2127 layer_factory.cpp:67] Creating layer scale3a_branch2b
I0906 16:06:01.149204  2127 net.cpp:96] Creating Layer scale3a_branch2b
I0906 16:06:01.149245  2127 net.cpp:444] scale3a_branch2b <- res3a_branch2b
I0906 16:06:01.149307  2127 net.cpp:400] scale3a_branch2b -> res3a_branch2b (in-place)
I0906 16:06:01.149384  2127 layer_factory.cpp:67] Creating layer scale3a_branch2b
I0906 16:06:01.149505  2127 net.cpp:134] Setting up scale3a_branch2b
I0906 16:06:01.149528  2127 net.cpp:142] Top shape: 16 128 28 28 (1605632)
I0906 16:06:01.149546  2127 net.cpp:153] Memory required for data: 1917124672
I0906 16:06:01.149593  2127 layer_factory.cpp:67] Creating layer res3a_branch2b_relu
I0906 16:06:01.149627  2127 net.cpp:96] Creating Layer res3a_branch2b_relu
I0906 16:06:01.149649  2127 net.cpp:444] res3a_branch2b_relu <- res3a_branch2b
I0906 16:06:01.149688  2127 net.cpp:400] res3a_branch2b_relu -> res3a_branch2b (in-place)
I0906 16:06:01.149725  2127 net.cpp:134] Setting up res3a_branch2b_relu
I0906 16:06:01.149742  2127 net.cpp:142] Top shape: 16 128 28 28 (1605632)
I0906 16:06:01.149761  2127 net.cpp:153] Memory required for data: 1923547200
I0906 16:06:01.149792  2127 layer_factory.cpp:67] Creating layer res3a_branch2c
I0906 16:06:01.149832  2127 net.cpp:96] Creating Layer res3a_branch2c
I0906 16:06:01.149853  2127 net.cpp:444] res3a_branch2c <- res3a_branch2b
I0906 16:06:01.149896  2127 net.cpp:413] res3a_branch2c -> res3a_branch2c
I0906 16:06:01.150490  2127 net.cpp:134] Setting up res3a_branch2c
I0906 16:06:01.150527  2127 net.cpp:142] Top shape: 16 512 28 28 (6422528)
I0906 16:06:01.150547  2127 net.cpp:153] Memory required for data: 1949237312
I0906 16:06:01.150599  2127 layer_factory.cpp:67] Creating layer bn3a_branch2c
I0906 16:06:01.150661  2127 net.cpp:96] Creating Layer bn3a_branch2c
I0906 16:06:01.150686  2127 net.cpp:444] bn3a_branch2c <- res3a_branch2c
I0906 16:06:01.150728  2127 net.cpp:400] bn3a_branch2c -> res3a_branch2c (in-place)
I0906 16:06:01.150838  2127 net.cpp:134] Setting up bn3a_branch2c
I0906 16:06:01.150857  2127 net.cpp:142] Top shape: 16 512 28 28 (6422528)
I0906 16:06:01.150876  2127 net.cpp:153] Memory required for data: 1974927424
I0906 16:06:01.150938  2127 layer_factory.cpp:67] Creating layer scale3a_branch2c
I0906 16:06:01.150976  2127 net.cpp:96] Creating Layer scale3a_branch2c
I0906 16:06:01.150998  2127 net.cpp:444] scale3a_branch2c <- res3a_branch2c
I0906 16:06:01.151038  2127 net.cpp:400] scale3a_branch2c -> res3a_branch2c (in-place)
I0906 16:06:01.151113  2127 layer_factory.cpp:67] Creating layer scale3a_branch2c
I0906 16:06:01.151237  2127 net.cpp:134] Setting up scale3a_branch2c
I0906 16:06:01.151257  2127 net.cpp:142] Top shape: 16 512 28 28 (6422528)
I0906 16:06:01.151276  2127 net.cpp:153] Memory required for data: 2000617536
I0906 16:06:01.151324  2127 layer_factory.cpp:67] Creating layer res3a
I0906 16:06:01.151357  2127 net.cpp:96] Creating Layer res3a
I0906 16:06:01.151379  2127 net.cpp:444] res3a <- res3a_branch1
I0906 16:06:01.151410  2127 net.cpp:444] res3a <- res3a_branch2c
I0906 16:06:01.151448  2127 net.cpp:413] res3a -> res3a
I0906 16:06:01.151500  2127 net.cpp:134] Setting up res3a
I0906 16:06:01.151521  2127 net.cpp:142] Top shape: 16 512 28 28 (6422528)
I0906 16:06:01.151540  2127 net.cpp:153] Memory required for data: 2026307648
I0906 16:06:01.151571  2127 layer_factory.cpp:67] Creating layer res3a_relu
I0906 16:06:01.151603  2127 net.cpp:96] Creating Layer res3a_relu
I0906 16:06:01.151624  2127 net.cpp:444] res3a_relu <- res3a
I0906 16:06:01.151662  2127 net.cpp:400] res3a_relu -> res3a (in-place)
I0906 16:06:01.151698  2127 net.cpp:134] Setting up res3a_relu
I0906 16:06:01.151715  2127 net.cpp:142] Top shape: 16 512 28 28 (6422528)
I0906 16:06:01.151732  2127 net.cpp:153] Memory required for data: 2051997760
I0906 16:06:01.151760  2127 layer_factory.cpp:67] Creating layer res3a_res3a_relu_0_split
I0906 16:06:01.151793  2127 net.cpp:96] Creating Layer res3a_res3a_relu_0_split
I0906 16:06:01.151814  2127 net.cpp:444] res3a_res3a_relu_0_split <- res3a
I0906 16:06:01.151854  2127 net.cpp:413] res3a_res3a_relu_0_split -> res3a_res3a_relu_0_split_0
I0906 16:06:01.151901  2127 net.cpp:413] res3a_res3a_relu_0_split -> res3a_res3a_relu_0_split_1
I0906 16:06:01.151957  2127 net.cpp:134] Setting up res3a_res3a_relu_0_split
I0906 16:06:01.151988  2127 net.cpp:142] Top shape: 16 512 28 28 (6422528)
I0906 16:06:01.152009  2127 net.cpp:142] Top shape: 16 512 28 28 (6422528)
I0906 16:06:01.152026  2127 net.cpp:153] Memory required for data: 2103377984
I0906 16:06:01.152061  2127 layer_factory.cpp:67] Creating layer res3b_branch2a
I0906 16:06:01.152101  2127 net.cpp:96] Creating Layer res3b_branch2a
I0906 16:06:01.152123  2127 net.cpp:444] res3b_branch2a <- res3a_res3a_relu_0_split_0
I0906 16:06:01.152168  2127 net.cpp:413] res3b_branch2a -> res3b_branch2a
I0906 16:06:01.152778  2127 net.cpp:134] Setting up res3b_branch2a
I0906 16:06:01.152815  2127 net.cpp:142] Top shape: 16 128 28 28 (1605632)
I0906 16:06:01.152837  2127 net.cpp:153] Memory required for data: 2109800512
I0906 16:06:01.152889  2127 layer_factory.cpp:67] Creating layer bn3b_branch2a
I0906 16:06:01.152981  2127 net.cpp:96] Creating Layer bn3b_branch2a
I0906 16:06:01.153004  2127 net.cpp:444] bn3b_branch2a <- res3b_branch2a
I0906 16:06:01.153045  2127 net.cpp:400] bn3b_branch2a -> res3b_branch2a (in-place)
I0906 16:06:01.153152  2127 net.cpp:134] Setting up bn3b_branch2a
I0906 16:06:01.153172  2127 net.cpp:142] Top shape: 16 128 28 28 (1605632)
I0906 16:06:01.153189  2127 net.cpp:153] Memory required for data: 2116223040
I0906 16:06:01.153249  2127 layer_factory.cpp:67] Creating layer scale3b_branch2a
I0906 16:06:01.153285  2127 net.cpp:96] Creating Layer scale3b_branch2a
I0906 16:06:01.153324  2127 net.cpp:444] scale3b_branch2a <- res3b_branch2a
I0906 16:06:01.153364  2127 net.cpp:400] scale3b_branch2a -> res3b_branch2a (in-place)
I0906 16:06:01.153436  2127 layer_factory.cpp:67] Creating layer scale3b_branch2a
I0906 16:06:01.153551  2127 net.cpp:134] Setting up scale3b_branch2a
I0906 16:06:01.153573  2127 net.cpp:142] Top shape: 16 128 28 28 (1605632)
I0906 16:06:01.153590  2127 net.cpp:153] Memory required for data: 2122645568
I0906 16:06:01.153635  2127 layer_factory.cpp:67] Creating layer res3b_branch2a_relu
I0906 16:06:01.153668  2127 net.cpp:96] Creating Layer res3b_branch2a_relu
I0906 16:06:01.153689  2127 net.cpp:444] res3b_branch2a_relu <- res3b_branch2a
I0906 16:06:01.153725  2127 net.cpp:400] res3b_branch2a_relu -> res3b_branch2a (in-place)
I0906 16:06:01.153761  2127 net.cpp:134] Setting up res3b_branch2a_relu
I0906 16:06:01.153777  2127 net.cpp:142] Top shape: 16 128 28 28 (1605632)
I0906 16:06:01.153795  2127 net.cpp:153] Memory required for data: 2129068096
I0906 16:06:01.153825  2127 layer_factory.cpp:67] Creating layer res3b_branch2b
I0906 16:06:01.153863  2127 net.cpp:96] Creating Layer res3b_branch2b
I0906 16:06:01.153884  2127 net.cpp:444] res3b_branch2b <- res3b_branch2a
I0906 16:06:01.153923  2127 net.cpp:413] res3b_branch2b -> res3b_branch2b
I0906 16:06:01.155038  2127 net.cpp:134] Setting up res3b_branch2b
I0906 16:06:01.155077  2127 net.cpp:142] Top shape: 16 128 28 28 (1605632)
I0906 16:06:01.155097  2127 net.cpp:153] Memory required for data: 2135490624
I0906 16:06:01.155148  2127 layer_factory.cpp:67] Creating layer bn3b_branch2b
I0906 16:06:01.155185  2127 net.cpp:96] Creating Layer bn3b_branch2b
I0906 16:06:01.155208  2127 net.cpp:444] bn3b_branch2b <- res3b_branch2b
I0906 16:06:01.155248  2127 net.cpp:400] bn3b_branch2b -> res3b_branch2b (in-place)
I0906 16:06:01.155354  2127 net.cpp:134] Setting up bn3b_branch2b
I0906 16:06:01.155373  2127 net.cpp:142] Top shape: 16 128 28 28 (1605632)
I0906 16:06:01.155390  2127 net.cpp:153] Memory required for data: 2141913152
I0906 16:06:01.155448  2127 layer_factory.cpp:67] Creating layer scale3b_branch2b
I0906 16:06:01.155484  2127 net.cpp:96] Creating Layer scale3b_branch2b
I0906 16:06:01.155506  2127 net.cpp:444] scale3b_branch2b <- res3b_branch2b
I0906 16:06:01.155544  2127 net.cpp:400] scale3b_branch2b -> res3b_branch2b (in-place)
I0906 16:06:01.155612  2127 layer_factory.cpp:67] Creating layer scale3b_branch2b
I0906 16:06:01.155728  2127 net.cpp:134] Setting up scale3b_branch2b
I0906 16:06:01.155750  2127 net.cpp:142] Top shape: 16 128 28 28 (1605632)
I0906 16:06:01.155771  2127 net.cpp:153] Memory required for data: 2148335680
I0906 16:06:01.155827  2127 layer_factory.cpp:67] Creating layer res3b_branch2b_relu
I0906 16:06:01.155861  2127 net.cpp:96] Creating Layer res3b_branch2b_relu
I0906 16:06:01.155884  2127 net.cpp:444] res3b_branch2b_relu <- res3b_branch2b
I0906 16:06:01.155920  2127 net.cpp:400] res3b_branch2b_relu -> res3b_branch2b (in-place)
I0906 16:06:01.155956  2127 net.cpp:134] Setting up res3b_branch2b_relu
I0906 16:06:01.155972  2127 net.cpp:142] Top shape: 16 128 28 28 (1605632)
I0906 16:06:01.155989  2127 net.cpp:153] Memory required for data: 2154758208
I0906 16:06:01.156020  2127 layer_factory.cpp:67] Creating layer res3b_branch2c
I0906 16:06:01.156057  2127 net.cpp:96] Creating Layer res3b_branch2c
I0906 16:06:01.156078  2127 net.cpp:444] res3b_branch2c <- res3b_branch2b
I0906 16:06:01.156118  2127 net.cpp:413] res3b_branch2c -> res3b_branch2c
I0906 16:06:01.156684  2127 net.cpp:134] Setting up res3b_branch2c
I0906 16:06:01.156719  2127 net.cpp:142] Top shape: 16 512 28 28 (6422528)
I0906 16:06:01.156738  2127 net.cpp:153] Memory required for data: 2180448320
I0906 16:06:01.156786  2127 layer_factory.cpp:67] Creating layer bn3b_branch2c
I0906 16:06:01.156826  2127 net.cpp:96] Creating Layer bn3b_branch2c
I0906 16:06:01.156848  2127 net.cpp:444] bn3b_branch2c <- res3b_branch2c
I0906 16:06:01.156888  2127 net.cpp:400] bn3b_branch2c -> res3b_branch2c (in-place)
I0906 16:06:01.156993  2127 net.cpp:134] Setting up bn3b_branch2c
I0906 16:06:01.157011  2127 net.cpp:142] Top shape: 16 512 28 28 (6422528)
I0906 16:06:01.157029  2127 net.cpp:153] Memory required for data: 2206138432
I0906 16:06:01.157088  2127 layer_factory.cpp:67] Creating layer scale3b_branch2c
I0906 16:06:01.157124  2127 net.cpp:96] Creating Layer scale3b_branch2c
I0906 16:06:01.157145  2127 net.cpp:444] scale3b_branch2c <- res3b_branch2c
I0906 16:06:01.157182  2127 net.cpp:400] scale3b_branch2c -> res3b_branch2c (in-place)
I0906 16:06:01.157255  2127 layer_factory.cpp:67] Creating layer scale3b_branch2c
I0906 16:06:01.157373  2127 net.cpp:134] Setting up scale3b_branch2c
I0906 16:06:01.157393  2127 net.cpp:142] Top shape: 16 512 28 28 (6422528)
I0906 16:06:01.157411  2127 net.cpp:153] Memory required for data: 2231828544
I0906 16:06:01.157454  2127 layer_factory.cpp:67] Creating layer res3b
I0906 16:06:01.157488  2127 net.cpp:96] Creating Layer res3b
I0906 16:06:01.157510  2127 net.cpp:444] res3b <- res3a_res3a_relu_0_split_1
I0906 16:06:01.157539  2127 net.cpp:444] res3b <- res3b_branch2c
I0906 16:06:01.157575  2127 net.cpp:413] res3b -> res3b
I0906 16:06:01.157627  2127 net.cpp:134] Setting up res3b
I0906 16:06:01.157647  2127 net.cpp:142] Top shape: 16 512 28 28 (6422528)
I0906 16:06:01.157665  2127 net.cpp:153] Memory required for data: 2257518656
I0906 16:06:01.157693  2127 layer_factory.cpp:67] Creating layer res3b_relu
I0906 16:06:01.157724  2127 net.cpp:96] Creating Layer res3b_relu
I0906 16:06:01.157745  2127 net.cpp:444] res3b_relu <- res3b
I0906 16:06:01.157781  2127 net.cpp:400] res3b_relu -> res3b (in-place)
I0906 16:06:01.157816  2127 net.cpp:134] Setting up res3b_relu
I0906 16:06:01.157832  2127 net.cpp:142] Top shape: 16 512 28 28 (6422528)
I0906 16:06:01.157850  2127 net.cpp:153] Memory required for data: 2283208768
I0906 16:06:01.157876  2127 layer_factory.cpp:67] Creating layer res3b_res3b_relu_0_split
I0906 16:06:01.157907  2127 net.cpp:96] Creating Layer res3b_res3b_relu_0_split
I0906 16:06:01.157927  2127 net.cpp:444] res3b_res3b_relu_0_split <- res3b
I0906 16:06:01.157964  2127 net.cpp:413] res3b_res3b_relu_0_split -> res3b_res3b_relu_0_split_0
I0906 16:06:01.158011  2127 net.cpp:413] res3b_res3b_relu_0_split -> res3b_res3b_relu_0_split_1
I0906 16:06:01.158061  2127 net.cpp:134] Setting up res3b_res3b_relu_0_split
I0906 16:06:01.158080  2127 net.cpp:142] Top shape: 16 512 28 28 (6422528)
I0906 16:06:01.158100  2127 net.cpp:142] Top shape: 16 512 28 28 (6422528)
I0906 16:06:01.158116  2127 net.cpp:153] Memory required for data: 2334588992
I0906 16:06:01.158152  2127 layer_factory.cpp:67] Creating layer res3c_branch2a
I0906 16:06:01.158201  2127 net.cpp:96] Creating Layer res3c_branch2a
I0906 16:06:01.158223  2127 net.cpp:444] res3c_branch2a <- res3b_res3b_relu_0_split_0
I0906 16:06:01.158267  2127 net.cpp:413] res3c_branch2a -> res3c_branch2a
I0906 16:06:01.158833  2127 net.cpp:134] Setting up res3c_branch2a
I0906 16:06:01.158866  2127 net.cpp:142] Top shape: 16 128 28 28 (1605632)
I0906 16:06:01.158885  2127 net.cpp:153] Memory required for data: 2341011520
I0906 16:06:01.158934  2127 layer_factory.cpp:67] Creating layer bn3c_branch2a
I0906 16:06:01.158972  2127 net.cpp:96] Creating Layer bn3c_branch2a
I0906 16:06:01.158995  2127 net.cpp:444] bn3c_branch2a <- res3c_branch2a
I0906 16:06:01.159035  2127 net.cpp:400] bn3c_branch2a -> res3c_branch2a (in-place)
I0906 16:06:01.159142  2127 net.cpp:134] Setting up bn3c_branch2a
I0906 16:06:01.159159  2127 net.cpp:142] Top shape: 16 128 28 28 (1605632)
I0906 16:06:01.159176  2127 net.cpp:153] Memory required for data: 2347434048
I0906 16:06:01.159235  2127 layer_factory.cpp:67] Creating layer scale3c_branch2a
I0906 16:06:01.159271  2127 net.cpp:96] Creating Layer scale3c_branch2a
I0906 16:06:01.159291  2127 net.cpp:444] scale3c_branch2a <- res3c_branch2a
I0906 16:06:01.159328  2127 net.cpp:400] scale3c_branch2a -> res3c_branch2a (in-place)
I0906 16:06:01.159397  2127 layer_factory.cpp:67] Creating layer scale3c_branch2a
I0906 16:06:01.159512  2127 net.cpp:134] Setting up scale3c_branch2a
I0906 16:06:01.159533  2127 net.cpp:142] Top shape: 16 128 28 28 (1605632)
I0906 16:06:01.159549  2127 net.cpp:153] Memory required for data: 2353856576
I0906 16:06:01.159592  2127 layer_factory.cpp:67] Creating layer res3c_branch2a_relu
I0906 16:06:01.159626  2127 net.cpp:96] Creating Layer res3c_branch2a_relu
I0906 16:06:01.159646  2127 net.cpp:444] res3c_branch2a_relu <- res3c_branch2a
I0906 16:06:01.159683  2127 net.cpp:400] res3c_branch2a_relu -> res3c_branch2a (in-place)
I0906 16:06:01.159718  2127 net.cpp:134] Setting up res3c_branch2a_relu
I0906 16:06:01.159734  2127 net.cpp:142] Top shape: 16 128 28 28 (1605632)
I0906 16:06:01.159752  2127 net.cpp:153] Memory required for data: 2360279104
I0906 16:06:01.159783  2127 layer_factory.cpp:67] Creating layer res3c_branch2b
I0906 16:06:01.159821  2127 net.cpp:96] Creating Layer res3c_branch2b
I0906 16:06:01.159842  2127 net.cpp:444] res3c_branch2b <- res3c_branch2a
I0906 16:06:01.159883  2127 net.cpp:413] res3c_branch2b -> res3c_branch2b
I0906 16:06:01.160998  2127 net.cpp:134] Setting up res3c_branch2b
I0906 16:06:01.161036  2127 net.cpp:142] Top shape: 16 128 28 28 (1605632)
I0906 16:06:01.161056  2127 net.cpp:153] Memory required for data: 2366701632
I0906 16:06:01.161106  2127 layer_factory.cpp:67] Creating layer bn3c_branch2b
I0906 16:06:01.161144  2127 net.cpp:96] Creating Layer bn3c_branch2b
I0906 16:06:01.161168  2127 net.cpp:444] bn3c_branch2b <- res3c_branch2b
I0906 16:06:01.161207  2127 net.cpp:400] bn3c_branch2b -> res3c_branch2b (in-place)
I0906 16:06:01.161314  2127 net.cpp:134] Setting up bn3c_branch2b
I0906 16:06:01.161331  2127 net.cpp:142] Top shape: 16 128 28 28 (1605632)
I0906 16:06:01.161348  2127 net.cpp:153] Memory required for data: 2373124160
I0906 16:06:01.161406  2127 layer_factory.cpp:67] Creating layer scale3c_branch2b
I0906 16:06:01.161442  2127 net.cpp:96] Creating Layer scale3c_branch2b
I0906 16:06:01.161463  2127 net.cpp:444] scale3c_branch2b <- res3c_branch2b
I0906 16:06:01.161499  2127 net.cpp:400] scale3c_branch2b -> res3c_branch2b (in-place)
I0906 16:06:01.161569  2127 layer_factory.cpp:67] Creating layer scale3c_branch2b
I0906 16:06:01.161684  2127 net.cpp:134] Setting up scale3c_branch2b
I0906 16:06:01.161705  2127 net.cpp:142] Top shape: 16 128 28 28 (1605632)
I0906 16:06:01.161722  2127 net.cpp:153] Memory required for data: 2379546688
I0906 16:06:01.161767  2127 layer_factory.cpp:67] Creating layer res3c_branch2b_relu
I0906 16:06:01.161799  2127 net.cpp:96] Creating Layer res3c_branch2b_relu
I0906 16:06:01.161820  2127 net.cpp:444] res3c_branch2b_relu <- res3c_branch2b
I0906 16:06:01.161871  2127 net.cpp:400] res3c_branch2b_relu -> res3c_branch2b (in-place)
I0906 16:06:01.161909  2127 net.cpp:134] Setting up res3c_branch2b_relu
I0906 16:06:01.161926  2127 net.cpp:142] Top shape: 16 128 28 28 (1605632)
I0906 16:06:01.161942  2127 net.cpp:153] Memory required for data: 2385969216
I0906 16:06:01.161973  2127 layer_factory.cpp:67] Creating layer res3c_branch2c
I0906 16:06:01.162011  2127 net.cpp:96] Creating Layer res3c_branch2c
I0906 16:06:01.162032  2127 net.cpp:444] res3c_branch2c <- res3c_branch2b
I0906 16:06:01.162073  2127 net.cpp:413] res3c_branch2c -> res3c_branch2c
I0906 16:06:01.162639  2127 net.cpp:134] Setting up res3c_branch2c
I0906 16:06:01.162674  2127 net.cpp:142] Top shape: 16 512 28 28 (6422528)
I0906 16:06:01.162693  2127 net.cpp:153] Memory required for data: 2411659328
I0906 16:06:01.162742  2127 layer_factory.cpp:67] Creating layer bn3c_branch2c
I0906 16:06:01.162781  2127 net.cpp:96] Creating Layer bn3c_branch2c
I0906 16:06:01.162803  2127 net.cpp:444] bn3c_branch2c <- res3c_branch2c
I0906 16:06:01.162843  2127 net.cpp:400] bn3c_branch2c -> res3c_branch2c (in-place)
I0906 16:06:01.162995  2127 net.cpp:134] Setting up bn3c_branch2c
I0906 16:06:01.163017  2127 net.cpp:142] Top shape: 16 512 28 28 (6422528)
I0906 16:06:01.163035  2127 net.cpp:153] Memory required for data: 2437349440
I0906 16:06:01.163095  2127 layer_factory.cpp:67] Creating layer scale3c_branch2c
I0906 16:06:01.163130  2127 net.cpp:96] Creating Layer scale3c_branch2c
I0906 16:06:01.163152  2127 net.cpp:444] scale3c_branch2c <- res3c_branch2c
I0906 16:06:01.163189  2127 net.cpp:400] scale3c_branch2c -> res3c_branch2c (in-place)
I0906 16:06:01.163259  2127 layer_factory.cpp:67] Creating layer scale3c_branch2c
I0906 16:06:01.163373  2127 net.cpp:134] Setting up scale3c_branch2c
I0906 16:06:01.163393  2127 net.cpp:142] Top shape: 16 512 28 28 (6422528)
I0906 16:06:01.163409  2127 net.cpp:153] Memory required for data: 2463039552
I0906 16:06:01.163451  2127 layer_factory.cpp:67] Creating layer res3c
I0906 16:06:01.163483  2127 net.cpp:96] Creating Layer res3c
I0906 16:06:01.163503  2127 net.cpp:444] res3c <- res3b_res3b_relu_0_split_1
I0906 16:06:01.163532  2127 net.cpp:444] res3c <- res3c_branch2c
I0906 16:06:01.163565  2127 net.cpp:413] res3c -> res3c
I0906 16:06:01.163614  2127 net.cpp:134] Setting up res3c
I0906 16:06:01.163635  2127 net.cpp:142] Top shape: 16 512 28 28 (6422528)
I0906 16:06:01.163651  2127 net.cpp:153] Memory required for data: 2488729664
I0906 16:06:01.163678  2127 layer_factory.cpp:67] Creating layer res3c_relu
I0906 16:06:01.163709  2127 net.cpp:96] Creating Layer res3c_relu
I0906 16:06:01.163728  2127 net.cpp:444] res3c_relu <- res3c
I0906 16:06:01.163763  2127 net.cpp:400] res3c_relu -> res3c (in-place)
I0906 16:06:01.163795  2127 net.cpp:134] Setting up res3c_relu
I0906 16:06:01.163810  2127 net.cpp:142] Top shape: 16 512 28 28 (6422528)
I0906 16:06:01.163826  2127 net.cpp:153] Memory required for data: 2514419776
I0906 16:06:01.163852  2127 layer_factory.cpp:67] Creating layer res3c_res3c_relu_0_split
I0906 16:06:01.163882  2127 net.cpp:96] Creating Layer res3c_res3c_relu_0_split
I0906 16:06:01.163902  2127 net.cpp:444] res3c_res3c_relu_0_split <- res3c
I0906 16:06:01.163938  2127 net.cpp:413] res3c_res3c_relu_0_split -> res3c_res3c_relu_0_split_0
I0906 16:06:01.163983  2127 net.cpp:413] res3c_res3c_relu_0_split -> res3c_res3c_relu_0_split_1
I0906 16:06:01.164031  2127 net.cpp:134] Setting up res3c_res3c_relu_0_split
I0906 16:06:01.164050  2127 net.cpp:142] Top shape: 16 512 28 28 (6422528)
I0906 16:06:01.164068  2127 net.cpp:142] Top shape: 16 512 28 28 (6422528)
I0906 16:06:01.164084  2127 net.cpp:153] Memory required for data: 2565800000
I0906 16:06:01.164114  2127 layer_factory.cpp:67] Creating layer res3d_branch2a
I0906 16:06:01.164151  2127 net.cpp:96] Creating Layer res3d_branch2a
I0906 16:06:01.164171  2127 net.cpp:444] res3d_branch2a <- res3c_res3c_relu_0_split_0
I0906 16:06:01.164211  2127 net.cpp:413] res3d_branch2a -> res3d_branch2a
I0906 16:06:01.164755  2127 net.cpp:134] Setting up res3d_branch2a
I0906 16:06:01.164800  2127 net.cpp:142] Top shape: 16 128 28 28 (1605632)
I0906 16:06:01.164820  2127 net.cpp:153] Memory required for data: 2572222528
I0906 16:06:01.164868  2127 layer_factory.cpp:67] Creating layer bn3d_branch2a
I0906 16:06:01.164906  2127 net.cpp:96] Creating Layer bn3d_branch2a
I0906 16:06:01.164927  2127 net.cpp:444] bn3d_branch2a <- res3d_branch2a
I0906 16:06:01.164966  2127 net.cpp:400] bn3d_branch2a -> res3d_branch2a (in-place)
I0906 16:06:01.165071  2127 net.cpp:134] Setting up bn3d_branch2a
I0906 16:06:01.165088  2127 net.cpp:142] Top shape: 16 128 28 28 (1605632)
I0906 16:06:01.165105  2127 net.cpp:153] Memory required for data: 2578645056
I0906 16:06:01.165223  2127 layer_factory.cpp:67] Creating layer scale3d_branch2a
I0906 16:06:01.165261  2127 net.cpp:96] Creating Layer scale3d_branch2a
I0906 16:06:01.165282  2127 net.cpp:444] scale3d_branch2a <- res3d_branch2a
I0906 16:06:01.165316  2127 net.cpp:400] scale3d_branch2a -> res3d_branch2a (in-place)
I0906 16:06:01.165383  2127 layer_factory.cpp:67] Creating layer scale3d_branch2a
I0906 16:06:01.165493  2127 net.cpp:134] Setting up scale3d_branch2a
I0906 16:06:01.165513  2127 net.cpp:142] Top shape: 16 128 28 28 (1605632)
I0906 16:06:01.165529  2127 net.cpp:153] Memory required for data: 2585067584
I0906 16:06:01.165572  2127 layer_factory.cpp:67] Creating layer res3d_branch2a_relu
I0906 16:06:01.165606  2127 net.cpp:96] Creating Layer res3d_branch2a_relu
I0906 16:06:01.165627  2127 net.cpp:444] res3d_branch2a_relu <- res3d_branch2a
I0906 16:06:01.165663  2127 net.cpp:400] res3d_branch2a_relu -> res3d_branch2a (in-place)
I0906 16:06:01.165696  2127 net.cpp:134] Setting up res3d_branch2a_relu
I0906 16:06:01.165711  2127 net.cpp:142] Top shape: 16 128 28 28 (1605632)
I0906 16:06:01.165727  2127 net.cpp:153] Memory required for data: 2591490112
I0906 16:06:01.165756  2127 layer_factory.cpp:67] Creating layer res3d_branch2b
I0906 16:06:01.165791  2127 net.cpp:96] Creating Layer res3d_branch2b
I0906 16:06:01.165812  2127 net.cpp:444] res3d_branch2b <- res3d_branch2a
I0906 16:06:01.165849  2127 net.cpp:413] res3d_branch2b -> res3d_branch2b
I0906 16:06:01.166909  2127 net.cpp:134] Setting up res3d_branch2b
I0906 16:06:01.166946  2127 net.cpp:142] Top shape: 16 128 28 28 (1605632)
I0906 16:06:01.166965  2127 net.cpp:153] Memory required for data: 2597912640
I0906 16:06:01.167014  2127 layer_factory.cpp:67] Creating layer bn3d_branch2b
I0906 16:06:01.167052  2127 net.cpp:96] Creating Layer bn3d_branch2b
I0906 16:06:01.167073  2127 net.cpp:444] bn3d_branch2b <- res3d_branch2b
I0906 16:06:01.167112  2127 net.cpp:400] bn3d_branch2b -> res3d_branch2b (in-place)
I0906 16:06:01.167213  2127 net.cpp:134] Setting up bn3d_branch2b
I0906 16:06:01.167229  2127 net.cpp:142] Top shape: 16 128 28 28 (1605632)
I0906 16:06:01.167246  2127 net.cpp:153] Memory required for data: 2604335168
I0906 16:06:01.167302  2127 layer_factory.cpp:67] Creating layer scale3d_branch2b
I0906 16:06:01.167337  2127 net.cpp:96] Creating Layer scale3d_branch2b
I0906 16:06:01.167357  2127 net.cpp:444] scale3d_branch2b <- res3d_branch2b
I0906 16:06:01.167392  2127 net.cpp:400] scale3d_branch2b -> res3d_branch2b (in-place)
I0906 16:06:01.167459  2127 layer_factory.cpp:67] Creating layer scale3d_branch2b
I0906 16:06:01.167570  2127 net.cpp:134] Setting up scale3d_branch2b
I0906 16:06:01.167590  2127 net.cpp:142] Top shape: 16 128 28 28 (1605632)
I0906 16:06:01.167608  2127 net.cpp:153] Memory required for data: 2610757696
I0906 16:06:01.167649  2127 layer_factory.cpp:67] Creating layer res3d_branch2b_relu
I0906 16:06:01.167680  2127 net.cpp:96] Creating Layer res3d_branch2b_relu
I0906 16:06:01.167701  2127 net.cpp:444] res3d_branch2b_relu <- res3d_branch2b
I0906 16:06:01.167735  2127 net.cpp:400] res3d_branch2b_relu -> res3d_branch2b (in-place)
I0906 16:06:01.167770  2127 net.cpp:134] Setting up res3d_branch2b_relu
I0906 16:06:01.167785  2127 net.cpp:142] Top shape: 16 128 28 28 (1605632)
I0906 16:06:01.167805  2127 net.cpp:153] Memory required for data: 2617180224
I0906 16:06:01.167845  2127 layer_factory.cpp:67] Creating layer res3d_branch2c
I0906 16:06:01.167881  2127 net.cpp:96] Creating Layer res3d_branch2c
I0906 16:06:01.167902  2127 net.cpp:444] res3d_branch2c <- res3d_branch2b
I0906 16:06:01.167943  2127 net.cpp:413] res3d_branch2c -> res3d_branch2c
I0906 16:06:01.168483  2127 net.cpp:134] Setting up res3d_branch2c
I0906 16:06:01.168516  2127 net.cpp:142] Top shape: 16 512 28 28 (6422528)
I0906 16:06:01.168534  2127 net.cpp:153] Memory required for data: 2642870336
I0906 16:06:01.168582  2127 layer_factory.cpp:67] Creating layer bn3d_branch2c
I0906 16:06:01.168618  2127 net.cpp:96] Creating Layer bn3d_branch2c
I0906 16:06:01.168640  2127 net.cpp:444] bn3d_branch2c <- res3d_branch2c
I0906 16:06:01.168679  2127 net.cpp:400] bn3d_branch2c -> res3d_branch2c (in-place)
I0906 16:06:01.168781  2127 net.cpp:134] Setting up bn3d_branch2c
I0906 16:06:01.168797  2127 net.cpp:142] Top shape: 16 512 28 28 (6422528)
I0906 16:06:01.168813  2127 net.cpp:153] Memory required for data: 2668560448
I0906 16:06:01.168869  2127 layer_factory.cpp:67] Creating layer scale3d_branch2c
I0906 16:06:01.168903  2127 net.cpp:96] Creating Layer scale3d_branch2c
I0906 16:06:01.168923  2127 net.cpp:444] scale3d_branch2c <- res3d_branch2c
I0906 16:06:01.168958  2127 net.cpp:400] scale3d_branch2c -> res3d_branch2c (in-place)
I0906 16:06:01.169028  2127 layer_factory.cpp:67] Creating layer scale3d_branch2c
I0906 16:06:01.169142  2127 net.cpp:134] Setting up scale3d_branch2c
I0906 16:06:01.169162  2127 net.cpp:142] Top shape: 16 512 28 28 (6422528)
I0906 16:06:01.169178  2127 net.cpp:153] Memory required for data: 2694250560
I0906 16:06:01.169219  2127 layer_factory.cpp:67] Creating layer res3d
I0906 16:06:01.169252  2127 net.cpp:96] Creating Layer res3d
I0906 16:06:01.169272  2127 net.cpp:444] res3d <- res3c_res3c_relu_0_split_1
I0906 16:06:01.169301  2127 net.cpp:444] res3d <- res3d_branch2c
I0906 16:06:01.169335  2127 net.cpp:413] res3d -> res3d
I0906 16:06:01.169385  2127 net.cpp:134] Setting up res3d
I0906 16:06:01.169404  2127 net.cpp:142] Top shape: 16 512 28 28 (6422528)
I0906 16:06:01.169421  2127 net.cpp:153] Memory required for data: 2719940672
I0906 16:06:01.169448  2127 layer_factory.cpp:67] Creating layer res3d_relu
I0906 16:06:01.169479  2127 net.cpp:96] Creating Layer res3d_relu
I0906 16:06:01.169498  2127 net.cpp:444] res3d_relu <- res3d
I0906 16:06:01.169533  2127 net.cpp:400] res3d_relu -> res3d (in-place)
I0906 16:06:01.169565  2127 net.cpp:134] Setting up res3d_relu
I0906 16:06:01.169579  2127 net.cpp:142] Top shape: 16 512 28 28 (6422528)
I0906 16:06:01.169596  2127 net.cpp:153] Memory required for data: 2745630784
I0906 16:06:01.169621  2127 layer_factory.cpp:67] Creating layer res3d_res3d_relu_0_split
I0906 16:06:01.169651  2127 net.cpp:96] Creating Layer res3d_res3d_relu_0_split
I0906 16:06:01.169670  2127 net.cpp:444] res3d_res3d_relu_0_split <- res3d
I0906 16:06:01.169706  2127 net.cpp:413] res3d_res3d_relu_0_split -> res3d_res3d_relu_0_split_0
I0906 16:06:01.169750  2127 net.cpp:413] res3d_res3d_relu_0_split -> res3d_res3d_relu_0_split_1
I0906 16:06:01.169797  2127 net.cpp:134] Setting up res3d_res3d_relu_0_split
I0906 16:06:01.169816  2127 net.cpp:142] Top shape: 16 512 28 28 (6422528)
I0906 16:06:01.169834  2127 net.cpp:142] Top shape: 16 512 28 28 (6422528)
I0906 16:06:01.169850  2127 net.cpp:153] Memory required for data: 2797011008
I0906 16:06:01.169881  2127 layer_factory.cpp:67] Creating layer res4a_branch1
I0906 16:06:01.169917  2127 net.cpp:96] Creating Layer res4a_branch1
I0906 16:06:01.169937  2127 net.cpp:444] res4a_branch1 <- res3d_res3d_relu_0_split_0
I0906 16:06:01.169976  2127 net.cpp:413] res4a_branch1 -> res4a_branch1
I0906 16:06:01.173429  2127 net.cpp:134] Setting up res4a_branch1
I0906 16:06:01.173465  2127 net.cpp:142] Top shape: 16 1024 14 14 (3211264)
I0906 16:06:01.173482  2127 net.cpp:153] Memory required for data: 2809856064
I0906 16:06:01.173528  2127 layer_factory.cpp:67] Creating layer bn4a_branch1
I0906 16:06:01.173568  2127 net.cpp:96] Creating Layer bn4a_branch1
I0906 16:06:01.173599  2127 net.cpp:444] bn4a_branch1 <- res4a_branch1
I0906 16:06:01.173637  2127 net.cpp:400] bn4a_branch1 -> res4a_branch1 (in-place)
I0906 16:06:01.173732  2127 net.cpp:134] Setting up bn4a_branch1
I0906 16:06:01.173749  2127 net.cpp:142] Top shape: 16 1024 14 14 (3211264)
I0906 16:06:01.173765  2127 net.cpp:153] Memory required for data: 2822701120
I0906 16:06:01.173820  2127 layer_factory.cpp:67] Creating layer scale4a_branch1
I0906 16:06:01.173852  2127 net.cpp:96] Creating Layer scale4a_branch1
I0906 16:06:01.173871  2127 net.cpp:444] scale4a_branch1 <- res4a_branch1
I0906 16:06:01.173905  2127 net.cpp:400] scale4a_branch1 -> res4a_branch1 (in-place)
I0906 16:06:01.173974  2127 layer_factory.cpp:67] Creating layer scale4a_branch1
I0906 16:06:01.174077  2127 net.cpp:134] Setting up scale4a_branch1
I0906 16:06:01.174096  2127 net.cpp:142] Top shape: 16 1024 14 14 (3211264)
I0906 16:06:01.174113  2127 net.cpp:153] Memory required for data: 2835546176
I0906 16:06:01.174156  2127 layer_factory.cpp:67] Creating layer res4a_branch2a
I0906 16:06:01.174192  2127 net.cpp:96] Creating Layer res4a_branch2a
I0906 16:06:01.174212  2127 net.cpp:444] res4a_branch2a <- res3d_res3d_relu_0_split_1
I0906 16:06:01.174250  2127 net.cpp:413] res4a_branch2a -> res4a_branch2a
I0906 16:06:01.175163  2127 net.cpp:134] Setting up res4a_branch2a
I0906 16:06:01.175200  2127 net.cpp:142] Top shape: 16 256 14 14 (802816)
I0906 16:06:01.175217  2127 net.cpp:153] Memory required for data: 2838757440
I0906 16:06:01.175264  2127 layer_factory.cpp:67] Creating layer bn4a_branch2a
I0906 16:06:01.175299  2127 net.cpp:96] Creating Layer bn4a_branch2a
I0906 16:06:01.175321  2127 net.cpp:444] bn4a_branch2a <- res4a_branch2a
I0906 16:06:01.175359  2127 net.cpp:400] bn4a_branch2a -> res4a_branch2a (in-place)
I0906 16:06:01.175451  2127 net.cpp:134] Setting up bn4a_branch2a
I0906 16:06:01.175467  2127 net.cpp:142] Top shape: 16 256 14 14 (802816)
I0906 16:06:01.175483  2127 net.cpp:153] Memory required for data: 2841968704
I0906 16:06:01.175536  2127 layer_factory.cpp:67] Creating layer scale4a_branch2a
I0906 16:06:01.175570  2127 net.cpp:96] Creating Layer scale4a_branch2a
I0906 16:06:01.175590  2127 net.cpp:444] scale4a_branch2a <- res4a_branch2a
I0906 16:06:01.175622  2127 net.cpp:400] scale4a_branch2a -> res4a_branch2a (in-place)
I0906 16:06:01.175686  2127 layer_factory.cpp:67] Creating layer scale4a_branch2a
I0906 16:06:01.175786  2127 net.cpp:134] Setting up scale4a_branch2a
I0906 16:06:01.175804  2127 net.cpp:142] Top shape: 16 256 14 14 (802816)
I0906 16:06:01.175820  2127 net.cpp:153] Memory required for data: 2845179968
I0906 16:06:01.175859  2127 layer_factory.cpp:67] Creating layer res4a_branch2a_relu
I0906 16:06:01.175889  2127 net.cpp:96] Creating Layer res4a_branch2a_relu
I0906 16:06:01.175909  2127 net.cpp:444] res4a_branch2a_relu <- res4a_branch2a
I0906 16:06:01.175942  2127 net.cpp:400] res4a_branch2a_relu -> res4a_branch2a (in-place)
I0906 16:06:01.175974  2127 net.cpp:134] Setting up res4a_branch2a_relu
I0906 16:06:01.175989  2127 net.cpp:142] Top shape: 16 256 14 14 (802816)
I0906 16:06:01.176004  2127 net.cpp:153] Memory required for data: 2848391232
I0906 16:06:01.176033  2127 layer_factory.cpp:67] Creating layer res4a_branch2b
I0906 16:06:01.176066  2127 net.cpp:96] Creating Layer res4a_branch2b
I0906 16:06:01.176084  2127 net.cpp:444] res4a_branch2b <- res4a_branch2a
I0906 16:06:01.176121  2127 net.cpp:413] res4a_branch2b -> res4a_branch2b
I0906 16:06:01.179771  2127 net.cpp:134] Setting up res4a_branch2b
I0906 16:06:01.179807  2127 net.cpp:142] Top shape: 16 256 14 14 (802816)
I0906 16:06:01.179826  2127 net.cpp:153] Memory required for data: 2851602496
I0906 16:06:01.179872  2127 layer_factory.cpp:67] Creating layer bn4a_branch2b
I0906 16:06:01.179906  2127 net.cpp:96] Creating Layer bn4a_branch2b
I0906 16:06:01.179929  2127 net.cpp:444] bn4a_branch2b <- res4a_branch2b
I0906 16:06:01.179965  2127 net.cpp:400] bn4a_branch2b -> res4a_branch2b (in-place)
I0906 16:06:01.180063  2127 net.cpp:134] Setting up bn4a_branch2b
I0906 16:06:01.180088  2127 net.cpp:142] Top shape: 16 256 14 14 (802816)
I0906 16:06:01.180105  2127 net.cpp:153] Memory required for data: 2854813760
I0906 16:06:01.180160  2127 layer_factory.cpp:67] Creating layer scale4a_branch2b
I0906 16:06:01.180194  2127 net.cpp:96] Creating Layer scale4a_branch2b
I0906 16:06:01.180213  2127 net.cpp:444] scale4a_branch2b <- res4a_branch2b
I0906 16:06:01.180248  2127 net.cpp:400] scale4a_branch2b -> res4a_branch2b (in-place)
I0906 16:06:01.180313  2127 layer_factory.cpp:67] Creating layer scale4a_branch2b
I0906 16:06:01.180413  2127 net.cpp:134] Setting up scale4a_branch2b
I0906 16:06:01.180430  2127 net.cpp:142] Top shape: 16 256 14 14 (802816)
I0906 16:06:01.180446  2127 net.cpp:153] Memory required for data: 2858025024
I0906 16:06:01.180485  2127 layer_factory.cpp:67] Creating layer res4a_branch2b_relu
I0906 16:06:01.180516  2127 net.cpp:96] Creating Layer res4a_branch2b_relu
I0906 16:06:01.180536  2127 net.cpp:444] res4a_branch2b_relu <- res4a_branch2b
I0906 16:06:01.180568  2127 net.cpp:400] res4a_branch2b_relu -> res4a_branch2b (in-place)
I0906 16:06:01.180601  2127 net.cpp:134] Setting up res4a_branch2b_relu
I0906 16:06:01.180615  2127 net.cpp:142] Top shape: 16 256 14 14 (802816)
I0906 16:06:01.180630  2127 net.cpp:153] Memory required for data: 2861236288
I0906 16:06:01.180658  2127 layer_factory.cpp:67] Creating layer res4a_branch2c
I0906 16:06:01.180693  2127 net.cpp:96] Creating Layer res4a_branch2c
I0906 16:06:01.180711  2127 net.cpp:444] res4a_branch2c <- res4a_branch2b
I0906 16:06:01.180749  2127 net.cpp:413] res4a_branch2c -> res4a_branch2c
I0906 16:06:01.182507  2127 net.cpp:134] Setting up res4a_branch2c
I0906 16:06:01.182541  2127 net.cpp:142] Top shape: 16 1024 14 14 (3211264)
I0906 16:06:01.182559  2127 net.cpp:153] Memory required for data: 2874081344
I0906 16:06:01.182606  2127 layer_factory.cpp:67] Creating layer bn4a_branch2c
I0906 16:06:01.182642  2127 net.cpp:96] Creating Layer bn4a_branch2c
I0906 16:06:01.182663  2127 net.cpp:444] bn4a_branch2c <- res4a_branch2c
I0906 16:06:01.182700  2127 net.cpp:400] bn4a_branch2c -> res4a_branch2c (in-place)
I0906 16:06:01.182793  2127 net.cpp:134] Setting up bn4a_branch2c
I0906 16:06:01.182811  2127 net.cpp:142] Top shape: 16 1024 14 14 (3211264)
I0906 16:06:01.182826  2127 net.cpp:153] Memory required for data: 2886926400
I0906 16:06:01.182879  2127 layer_factory.cpp:67] Creating layer scale4a_branch2c
I0906 16:06:01.182962  2127 net.cpp:96] Creating Layer scale4a_branch2c
I0906 16:06:01.182986  2127 net.cpp:444] scale4a_branch2c <- res4a_branch2c
I0906 16:06:01.183022  2127 net.cpp:400] scale4a_branch2c -> res4a_branch2c (in-place)
I0906 16:06:01.183089  2127 layer_factory.cpp:67] Creating layer scale4a_branch2c
I0906 16:06:01.183188  2127 net.cpp:134] Setting up scale4a_branch2c
I0906 16:06:01.183205  2127 net.cpp:142] Top shape: 16 1024 14 14 (3211264)
I0906 16:06:01.183220  2127 net.cpp:153] Memory required for data: 2899771456
I0906 16:06:01.183257  2127 layer_factory.cpp:67] Creating layer res4a
I0906 16:06:01.183286  2127 net.cpp:96] Creating Layer res4a
I0906 16:06:01.183305  2127 net.cpp:444] res4a <- res4a_branch1
I0906 16:06:01.183329  2127 net.cpp:444] res4a <- res4a_branch2c
I0906 16:06:01.183358  2127 net.cpp:413] res4a -> res4a
I0906 16:06:01.183403  2127 net.cpp:134] Setting up res4a
I0906 16:06:01.183420  2127 net.cpp:142] Top shape: 16 1024 14 14 (3211264)
I0906 16:06:01.183435  2127 net.cpp:153] Memory required for data: 2912616512
I0906 16:06:01.183459  2127 layer_factory.cpp:67] Creating layer res4a_relu
I0906 16:06:01.183486  2127 net.cpp:96] Creating Layer res4a_relu
I0906 16:06:01.183503  2127 net.cpp:444] res4a_relu <- res4a
I0906 16:06:01.183532  2127 net.cpp:400] res4a_relu -> res4a (in-place)
I0906 16:06:01.183562  2127 net.cpp:134] Setting up res4a_relu
I0906 16:06:01.183576  2127 net.cpp:142] Top shape: 16 1024 14 14 (3211264)
I0906 16:06:01.183590  2127 net.cpp:153] Memory required for data: 2925461568
I0906 16:06:01.183617  2127 layer_factory.cpp:67] Creating layer res4a_res4a_relu_0_split
I0906 16:06:01.183653  2127 net.cpp:96] Creating Layer res4a_res4a_relu_0_split
I0906 16:06:01.183671  2127 net.cpp:444] res4a_res4a_relu_0_split <- res4a
I0906 16:06:01.183704  2127 net.cpp:413] res4a_res4a_relu_0_split -> res4a_res4a_relu_0_split_0
I0906 16:06:01.183744  2127 net.cpp:413] res4a_res4a_relu_0_split -> res4a_res4a_relu_0_split_1
I0906 16:06:01.183787  2127 net.cpp:134] Setting up res4a_res4a_relu_0_split
I0906 16:06:01.183804  2127 net.cpp:142] Top shape: 16 1024 14 14 (3211264)
I0906 16:06:01.183820  2127 net.cpp:142] Top shape: 16 1024 14 14 (3211264)
I0906 16:06:01.183835  2127 net.cpp:153] Memory required for data: 2951151680
I0906 16:06:01.183862  2127 layer_factory.cpp:67] Creating layer res4b_branch2a
I0906 16:06:01.183924  2127 net.cpp:96] Creating Layer res4b_branch2a
I0906 16:06:01.183944  2127 net.cpp:444] res4b_branch2a <- res4a_res4a_relu_0_split_0
I0906 16:06:01.183980  2127 net.cpp:413] res4b_branch2a -> res4b_branch2a
I0906 16:06:01.185591  2127 net.cpp:134] Setting up res4b_branch2a
I0906 16:06:01.185626  2127 net.cpp:142] Top shape: 16 256 14 14 (802816)
I0906 16:06:01.185642  2127 net.cpp:153] Memory required for data: 2954362944
I0906 16:06:01.185688  2127 layer_factory.cpp:67] Creating layer bn4b_branch2a
I0906 16:06:01.185722  2127 net.cpp:96] Creating Layer bn4b_branch2a
I0906 16:06:01.185742  2127 net.cpp:444] bn4b_branch2a <- res4b_branch2a
I0906 16:06:01.185776  2127 net.cpp:400] bn4b_branch2a -> res4b_branch2a (in-place)
I0906 16:06:01.185863  2127 net.cpp:134] Setting up bn4b_branch2a
I0906 16:06:01.185878  2127 net.cpp:142] Top shape: 16 256 14 14 (802816)
I0906 16:06:01.185892  2127 net.cpp:153] Memory required for data: 2957574208
I0906 16:06:01.185942  2127 layer_factory.cpp:67] Creating layer scale4b_branch2a
I0906 16:06:01.185973  2127 net.cpp:96] Creating Layer scale4b_branch2a
I0906 16:06:01.185992  2127 net.cpp:444] scale4b_branch2a <- res4b_branch2a
I0906 16:06:01.186023  2127 net.cpp:400] scale4b_branch2a -> res4b_branch2a (in-place)
I0906 16:06:01.186084  2127 layer_factory.cpp:67] Creating layer scale4b_branch2a
I0906 16:06:01.186177  2127 net.cpp:134] Setting up scale4b_branch2a
I0906 16:06:01.186193  2127 net.cpp:142] Top shape: 16 256 14 14 (802816)
I0906 16:06:01.186208  2127 net.cpp:153] Memory required for data: 2960785472
I0906 16:06:01.186244  2127 layer_factory.cpp:67] Creating layer res4b_branch2a_relu
I0906 16:06:01.186273  2127 net.cpp:96] Creating Layer res4b_branch2a_relu
I0906 16:06:01.186291  2127 net.cpp:444] res4b_branch2a_relu <- res4b_branch2a
I0906 16:06:01.186322  2127 net.cpp:400] res4b_branch2a_relu -> res4b_branch2a (in-place)
I0906 16:06:01.186352  2127 net.cpp:134] Setting up res4b_branch2a_relu
I0906 16:06:01.186365  2127 net.cpp:142] Top shape: 16 256 14 14 (802816)
I0906 16:06:01.186379  2127 net.cpp:153] Memory required for data: 2963996736
I0906 16:06:01.186405  2127 layer_factory.cpp:67] Creating layer res4b_branch2b
I0906 16:06:01.186436  2127 net.cpp:96] Creating Layer res4b_branch2b
I0906 16:06:01.186455  2127 net.cpp:444] res4b_branch2b <- res4b_branch2a
I0906 16:06:01.186488  2127 net.cpp:413] res4b_branch2b -> res4b_branch2b
I0906 16:06:01.189977  2127 net.cpp:134] Setting up res4b_branch2b
I0906 16:06:01.190011  2127 net.cpp:142] Top shape: 16 256 14 14 (802816)
I0906 16:06:01.190028  2127 net.cpp:153] Memory required for data: 2967208000
I0906 16:06:01.190071  2127 layer_factory.cpp:67] Creating layer bn4b_branch2b
I0906 16:06:01.190105  2127 net.cpp:96] Creating Layer bn4b_branch2b
I0906 16:06:01.190125  2127 net.cpp:444] bn4b_branch2b <- res4b_branch2b
I0906 16:06:01.190160  2127 net.cpp:400] bn4b_branch2b -> res4b_branch2b (in-place)
I0906 16:06:01.190245  2127 net.cpp:134] Setting up bn4b_branch2b
I0906 16:06:01.190261  2127 net.cpp:142] Top shape: 16 256 14 14 (802816)
I0906 16:06:01.190275  2127 net.cpp:153] Memory required for data: 2970419264
I0906 16:06:01.190325  2127 layer_factory.cpp:67] Creating layer scale4b_branch2b
I0906 16:06:01.190359  2127 net.cpp:96] Creating Layer scale4b_branch2b
I0906 16:06:01.190387  2127 net.cpp:444] scale4b_branch2b <- res4b_branch2b
I0906 16:06:01.190420  2127 net.cpp:400] scale4b_branch2b -> res4b_branch2b (in-place)
I0906 16:06:01.190482  2127 layer_factory.cpp:67] Creating layer scale4b_branch2b
I0906 16:06:01.190574  2127 net.cpp:134] Setting up scale4b_branch2b
I0906 16:06:01.190591  2127 net.cpp:142] Top shape: 16 256 14 14 (802816)
I0906 16:06:01.190606  2127 net.cpp:153] Memory required for data: 2973630528
I0906 16:06:01.190644  2127 layer_factory.cpp:67] Creating layer res4b_branch2b_relu
I0906 16:06:01.190672  2127 net.cpp:96] Creating Layer res4b_branch2b_relu
I0906 16:06:01.190690  2127 net.cpp:444] res4b_branch2b_relu <- res4b_branch2b
I0906 16:06:01.190721  2127 net.cpp:400] res4b_branch2b_relu -> res4b_branch2b (in-place)
I0906 16:06:01.190752  2127 net.cpp:134] Setting up res4b_branch2b_relu
I0906 16:06:01.190764  2127 net.cpp:142] Top shape: 16 256 14 14 (802816)
I0906 16:06:01.190778  2127 net.cpp:153] Memory required for data: 2976841792
I0906 16:06:01.190804  2127 layer_factory.cpp:67] Creating layer res4b_branch2c
I0906 16:06:01.190835  2127 net.cpp:96] Creating Layer res4b_branch2c
I0906 16:06:01.190853  2127 net.cpp:444] res4b_branch2c <- res4b_branch2b
I0906 16:06:01.190887  2127 net.cpp:413] res4b_branch2c -> res4b_branch2c
I0906 16:06:01.192497  2127 net.cpp:134] Setting up res4b_branch2c
I0906 16:06:01.192530  2127 net.cpp:142] Top shape: 16 1024 14 14 (3211264)
I0906 16:06:01.192548  2127 net.cpp:153] Memory required for data: 2989686848
I0906 16:06:01.192591  2127 layer_factory.cpp:67] Creating layer bn4b_branch2c
I0906 16:06:01.192625  2127 net.cpp:96] Creating Layer bn4b_branch2c
I0906 16:06:01.192644  2127 net.cpp:444] bn4b_branch2c <- res4b_branch2c
I0906 16:06:01.192678  2127 net.cpp:400] bn4b_branch2c -> res4b_branch2c (in-place)
I0906 16:06:01.192765  2127 net.cpp:134] Setting up bn4b_branch2c
I0906 16:06:01.192781  2127 net.cpp:142] Top shape: 16 1024 14 14 (3211264)
I0906 16:06:01.192795  2127 net.cpp:153] Memory required for data: 3002531904
I0906 16:06:01.192845  2127 layer_factory.cpp:67] Creating layer scale4b_branch2c
I0906 16:06:01.192875  2127 net.cpp:96] Creating Layer scale4b_branch2c
I0906 16:06:01.192936  2127 net.cpp:444] scale4b_branch2c <- res4b_branch2c
I0906 16:06:01.192978  2127 net.cpp:400] scale4b_branch2c -> res4b_branch2c (in-place)
I0906 16:06:01.193047  2127 layer_factory.cpp:67] Creating layer scale4b_branch2c
I0906 16:06:01.193142  2127 net.cpp:134] Setting up scale4b_branch2c
I0906 16:06:01.193159  2127 net.cpp:142] Top shape: 16 1024 14 14 (3211264)
I0906 16:06:01.193174  2127 net.cpp:153] Memory required for data: 3015376960
I0906 16:06:01.193212  2127 layer_factory.cpp:67] Creating layer res4b
I0906 16:06:01.193239  2127 net.cpp:96] Creating Layer res4b
I0906 16:06:01.193258  2127 net.cpp:444] res4b <- res4a_res4a_relu_0_split_1
I0906 16:06:01.193282  2127 net.cpp:444] res4b <- res4b_branch2c
I0906 16:06:01.193310  2127 net.cpp:413] res4b -> res4b
I0906 16:06:01.193354  2127 net.cpp:134] Setting up res4b
I0906 16:06:01.193372  2127 net.cpp:142] Top shape: 16 1024 14 14 (3211264)
I0906 16:06:01.193385  2127 net.cpp:153] Memory required for data: 3028222016
I0906 16:06:01.193408  2127 layer_factory.cpp:67] Creating layer res4b_relu
I0906 16:06:01.193434  2127 net.cpp:96] Creating Layer res4b_relu
I0906 16:06:01.193451  2127 net.cpp:444] res4b_relu <- res4b
I0906 16:06:01.193480  2127 net.cpp:400] res4b_relu -> res4b (in-place)
I0906 16:06:01.193509  2127 net.cpp:134] Setting up res4b_relu
I0906 16:06:01.193522  2127 net.cpp:142] Top shape: 16 1024 14 14 (3211264)
I0906 16:06:01.193536  2127 net.cpp:153] Memory required for data: 3041067072
I0906 16:06:01.193557  2127 layer_factory.cpp:67] Creating layer res4b_res4b_relu_0_split
I0906 16:06:01.193583  2127 net.cpp:96] Creating Layer res4b_res4b_relu_0_split
I0906 16:06:01.193599  2127 net.cpp:444] res4b_res4b_relu_0_split <- res4b
I0906 16:06:01.193630  2127 net.cpp:413] res4b_res4b_relu_0_split -> res4b_res4b_relu_0_split_0
I0906 16:06:01.193672  2127 net.cpp:413] res4b_res4b_relu_0_split -> res4b_res4b_relu_0_split_1
I0906 16:06:01.193723  2127 net.cpp:134] Setting up res4b_res4b_relu_0_split
I0906 16:06:01.193740  2127 net.cpp:142] Top shape: 16 1024 14 14 (3211264)
I0906 16:06:01.193756  2127 net.cpp:142] Top shape: 16 1024 14 14 (3211264)
I0906 16:06:01.193769  2127 net.cpp:153] Memory required for data: 3066757184
I0906 16:06:01.193796  2127 layer_factory.cpp:67] Creating layer res4c_branch2a
I0906 16:06:01.193828  2127 net.cpp:96] Creating Layer res4c_branch2a
I0906 16:06:01.193845  2127 net.cpp:444] res4c_branch2a <- res4b_res4b_relu_0_split_0
I0906 16:06:01.193881  2127 net.cpp:413] res4c_branch2a -> res4c_branch2a
I0906 16:06:01.195442  2127 net.cpp:134] Setting up res4c_branch2a
I0906 16:06:01.195477  2127 net.cpp:142] Top shape: 16 256 14 14 (802816)
I0906 16:06:01.195492  2127 net.cpp:153] Memory required for data: 3069968448
I0906 16:06:01.195535  2127 layer_factory.cpp:67] Creating layer bn4c_branch2a
I0906 16:06:01.195567  2127 net.cpp:96] Creating Layer bn4c_branch2a
I0906 16:06:01.195586  2127 net.cpp:444] bn4c_branch2a <- res4c_branch2a
I0906 16:06:01.195621  2127 net.cpp:400] bn4c_branch2a -> res4c_branch2a (in-place)
I0906 16:06:01.195704  2127 net.cpp:134] Setting up bn4c_branch2a
I0906 16:06:01.195719  2127 net.cpp:142] Top shape: 16 256 14 14 (802816)
I0906 16:06:01.195734  2127 net.cpp:153] Memory required for data: 3073179712
I0906 16:06:01.195780  2127 layer_factory.cpp:67] Creating layer scale4c_branch2a
I0906 16:06:01.195811  2127 net.cpp:96] Creating Layer scale4c_branch2a
I0906 16:06:01.195828  2127 net.cpp:444] scale4c_branch2a <- res4c_branch2a
I0906 16:06:01.195858  2127 net.cpp:400] scale4c_branch2a -> res4c_branch2a (in-place)
I0906 16:06:01.195916  2127 layer_factory.cpp:67] Creating layer scale4c_branch2a
I0906 16:06:01.196005  2127 net.cpp:134] Setting up scale4c_branch2a
I0906 16:06:01.196022  2127 net.cpp:142] Top shape: 16 256 14 14 (802816)
I0906 16:06:01.196036  2127 net.cpp:153] Memory required for data: 3076390976
I0906 16:06:01.196072  2127 layer_factory.cpp:67] Creating layer res4c_branch2a_relu
I0906 16:06:01.196100  2127 net.cpp:96] Creating Layer res4c_branch2a_relu
I0906 16:06:01.196117  2127 net.cpp:444] res4c_branch2a_relu <- res4c_branch2a
I0906 16:06:01.196148  2127 net.cpp:400] res4c_branch2a_relu -> res4c_branch2a (in-place)
I0906 16:06:01.196177  2127 net.cpp:134] Setting up res4c_branch2a_relu
I0906 16:06:01.196190  2127 net.cpp:142] Top shape: 16 256 14 14 (802816)
I0906 16:06:01.196203  2127 net.cpp:153] Memory required for data: 3079602240
I0906 16:06:01.196228  2127 layer_factory.cpp:67] Creating layer res4c_branch2b
I0906 16:06:01.196259  2127 net.cpp:96] Creating Layer res4c_branch2b
I0906 16:06:01.196276  2127 net.cpp:444] res4c_branch2b <- res4c_branch2a
I0906 16:06:01.196310  2127 net.cpp:413] res4c_branch2b -> res4c_branch2b
I0906 16:06:01.198354  2213 data_layer.cpp:130] Prefetch batch: 76 ms.
I0906 16:06:01.198428  2213 data_layer.cpp:131]      Read time: 6.415 ms.
I0906 16:06:01.198449  2213 data_layer.cpp:132] Transform time: 69.765 ms.
I0906 16:06:01.199646  2127 net.cpp:134] Setting up res4c_branch2b
I0906 16:06:01.199679  2127 net.cpp:142] Top shape: 16 256 14 14 (802816)
I0906 16:06:01.199695  2127 net.cpp:153] Memory required for data: 3082813504
I0906 16:06:01.199738  2127 layer_factory.cpp:67] Creating layer bn4c_branch2b
I0906 16:06:01.199770  2127 net.cpp:96] Creating Layer bn4c_branch2b
I0906 16:06:01.199790  2127 net.cpp:444] bn4c_branch2b <- res4c_branch2b
I0906 16:06:01.199823  2127 net.cpp:400] bn4c_branch2b -> res4c_branch2b (in-place)
I0906 16:06:01.199906  2127 net.cpp:134] Setting up bn4c_branch2b
I0906 16:06:01.199921  2127 net.cpp:142] Top shape: 16 256 14 14 (802816)
I0906 16:06:01.199935  2127 net.cpp:153] Memory required for data: 3086024768
I0906 16:06:01.199983  2127 layer_factory.cpp:67] Creating layer scale4c_branch2b
I0906 16:06:01.200013  2127 net.cpp:96] Creating Layer scale4c_branch2b
I0906 16:06:01.200031  2127 net.cpp:444] scale4c_branch2b <- res4c_branch2b
I0906 16:06:01.200064  2127 net.cpp:400] scale4c_branch2b -> res4c_branch2b (in-place)
I0906 16:06:01.200134  2127 layer_factory.cpp:67] Creating layer scale4c_branch2b
I0906 16:06:01.200225  2127 net.cpp:134] Setting up scale4c_branch2b
I0906 16:06:01.200242  2127 net.cpp:142] Top shape: 16 256 14 14 (802816)
I0906 16:06:01.200256  2127 net.cpp:153] Memory required for data: 3089236032
I0906 16:06:01.200292  2127 layer_factory.cpp:67] Creating layer res4c_branch2b_relu
I0906 16:06:01.200320  2127 net.cpp:96] Creating Layer res4c_branch2b_relu
I0906 16:06:01.200337  2127 net.cpp:444] res4c_branch2b_relu <- res4c_branch2b
I0906 16:06:01.200367  2127 net.cpp:400] res4c_branch2b_relu -> res4c_branch2b (in-place)
I0906 16:06:01.200397  2127 net.cpp:134] Setting up res4c_branch2b_relu
I0906 16:06:01.200408  2127 net.cpp:142] Top shape: 16 256 14 14 (802816)
I0906 16:06:01.200423  2127 net.cpp:153] Memory required for data: 3092447296
I0906 16:06:01.200446  2127 layer_factory.cpp:67] Creating layer res4c_branch2c
I0906 16:06:01.200477  2127 net.cpp:96] Creating Layer res4c_branch2c
I0906 16:06:01.200495  2127 net.cpp:444] res4c_branch2c <- res4c_branch2b
I0906 16:06:01.200526  2127 net.cpp:413] res4c_branch2c -> res4c_branch2c
I0906 16:06:01.202111  2127 net.cpp:134] Setting up res4c_branch2c
I0906 16:06:01.202144  2127 net.cpp:142] Top shape: 16 1024 14 14 (3211264)
I0906 16:06:01.202162  2127 net.cpp:153] Memory required for data: 3105292352
I0906 16:06:01.202206  2127 layer_factory.cpp:67] Creating layer bn4c_branch2c
I0906 16:06:01.202272  2127 net.cpp:96] Creating Layer bn4c_branch2c
I0906 16:06:01.202297  2127 net.cpp:444] bn4c_branch2c <- res4c_branch2c
I0906 16:06:01.202334  2127 net.cpp:400] bn4c_branch2c -> res4c_branch2c (in-place)
I0906 16:06:01.202422  2127 net.cpp:134] Setting up bn4c_branch2c
I0906 16:06:01.202437  2127 net.cpp:142] Top shape: 16 1024 14 14 (3211264)
I0906 16:06:01.202452  2127 net.cpp:153] Memory required for data: 3118137408
I0906 16:06:01.202500  2127 layer_factory.cpp:67] Creating layer scale4c_branch2c
I0906 16:06:01.202531  2127 net.cpp:96] Creating Layer scale4c_branch2c
I0906 16:06:01.202548  2127 net.cpp:444] scale4c_branch2c <- res4c_branch2c
I0906 16:06:01.202579  2127 net.cpp:400] scale4c_branch2c -> res4c_branch2c (in-place)
I0906 16:06:01.202642  2127 layer_factory.cpp:67] Creating layer scale4c_branch2c
I0906 16:06:01.202735  2127 net.cpp:134] Setting up scale4c_branch2c
I0906 16:06:01.202752  2127 net.cpp:142] Top shape: 16 1024 14 14 (3211264)
I0906 16:06:01.202767  2127 net.cpp:153] Memory required for data: 3130982464
I0906 16:06:01.202802  2127 layer_factory.cpp:67] Creating layer res4c
I0906 16:06:01.202831  2127 net.cpp:96] Creating Layer res4c
I0906 16:06:01.202847  2127 net.cpp:444] res4c <- res4b_res4b_relu_0_split_1
I0906 16:06:01.202872  2127 net.cpp:444] res4c <- res4c_branch2c
I0906 16:06:01.202940  2127 net.cpp:413] res4c -> res4c
I0906 16:06:01.202992  2127 net.cpp:134] Setting up res4c
I0906 16:06:01.203009  2127 net.cpp:142] Top shape: 16 1024 14 14 (3211264)
I0906 16:06:01.203023  2127 net.cpp:153] Memory required for data: 3143827520
I0906 16:06:01.203048  2127 layer_factory.cpp:67] Creating layer res4c_relu
I0906 16:06:01.203074  2127 net.cpp:96] Creating Layer res4c_relu
I0906 16:06:01.203090  2127 net.cpp:444] res4c_relu <- res4c
I0906 16:06:01.203120  2127 net.cpp:400] res4c_relu -> res4c (in-place)
I0906 16:06:01.203147  2127 net.cpp:134] Setting up res4c_relu
I0906 16:06:01.203160  2127 net.cpp:142] Top shape: 16 1024 14 14 (3211264)
I0906 16:06:01.203172  2127 net.cpp:153] Memory required for data: 3156672576
I0906 16:06:01.203193  2127 layer_factory.cpp:67] Creating layer res4c_res4c_relu_0_split
I0906 16:06:01.203218  2127 net.cpp:96] Creating Layer res4c_res4c_relu_0_split
I0906 16:06:01.203234  2127 net.cpp:444] res4c_res4c_relu_0_split <- res4c
I0906 16:06:01.203264  2127 net.cpp:413] res4c_res4c_relu_0_split -> res4c_res4c_relu_0_split_0
I0906 16:06:01.203301  2127 net.cpp:413] res4c_res4c_relu_0_split -> res4c_res4c_relu_0_split_1
I0906 16:06:01.203344  2127 net.cpp:134] Setting up res4c_res4c_relu_0_split
I0906 16:06:01.203369  2127 net.cpp:142] Top shape: 16 1024 14 14 (3211264)
I0906 16:06:01.203385  2127 net.cpp:142] Top shape: 16 1024 14 14 (3211264)
I0906 16:06:01.203398  2127 net.cpp:153] Memory required for data: 3182362688
I0906 16:06:01.203426  2127 layer_factory.cpp:67] Creating layer res4d_branch2a
I0906 16:06:01.203457  2127 net.cpp:96] Creating Layer res4d_branch2a
I0906 16:06:01.203474  2127 net.cpp:444] res4d_branch2a <- res4c_res4c_relu_0_split_0
I0906 16:06:01.203508  2127 net.cpp:413] res4d_branch2a -> res4d_branch2a
I0906 16:06:01.204993  2127 net.cpp:134] Setting up res4d_branch2a
I0906 16:06:01.205026  2127 net.cpp:142] Top shape: 16 256 14 14 (802816)
I0906 16:06:01.205042  2127 net.cpp:153] Memory required for data: 3185573952
I0906 16:06:01.205083  2127 layer_factory.cpp:67] Creating layer bn4d_branch2a
I0906 16:06:01.205114  2127 net.cpp:96] Creating Layer bn4d_branch2a
I0906 16:06:01.205133  2127 net.cpp:444] bn4d_branch2a <- res4d_branch2a
I0906 16:06:01.205165  2127 net.cpp:400] bn4d_branch2a -> res4d_branch2a (in-place)
I0906 16:06:01.205245  2127 net.cpp:134] Setting up bn4d_branch2a
I0906 16:06:01.205260  2127 net.cpp:142] Top shape: 16 256 14 14 (802816)
I0906 16:06:01.205273  2127 net.cpp:153] Memory required for data: 3188785216
I0906 16:06:01.205319  2127 layer_factory.cpp:67] Creating layer scale4d_branch2a
I0906 16:06:01.205348  2127 net.cpp:96] Creating Layer scale4d_branch2a
I0906 16:06:01.205365  2127 net.cpp:444] scale4d_branch2a <- res4d_branch2a
I0906 16:06:01.205395  2127 net.cpp:400] scale4d_branch2a -> res4d_branch2a (in-place)
I0906 16:06:01.205451  2127 layer_factory.cpp:67] Creating layer scale4d_branch2a
I0906 16:06:01.205538  2127 net.cpp:134] Setting up scale4d_branch2a
I0906 16:06:01.205554  2127 net.cpp:142] Top shape: 16 256 14 14 (802816)
I0906 16:06:01.205569  2127 net.cpp:153] Memory required for data: 3191996480
I0906 16:06:01.205603  2127 layer_factory.cpp:67] Creating layer res4d_branch2a_relu
I0906 16:06:01.205629  2127 net.cpp:96] Creating Layer res4d_branch2a_relu
I0906 16:06:01.205646  2127 net.cpp:444] res4d_branch2a_relu <- res4d_branch2a
I0906 16:06:01.205675  2127 net.cpp:400] res4d_branch2a_relu -> res4d_branch2a (in-place)
I0906 16:06:01.205703  2127 net.cpp:134] Setting up res4d_branch2a_relu
I0906 16:06:01.205715  2127 net.cpp:142] Top shape: 16 256 14 14 (802816)
I0906 16:06:01.205729  2127 net.cpp:153] Memory required for data: 3195207744
I0906 16:06:01.205754  2127 layer_factory.cpp:67] Creating layer res4d_branch2b
I0906 16:06:01.205783  2127 net.cpp:96] Creating Layer res4d_branch2b
I0906 16:06:01.205799  2127 net.cpp:444] res4d_branch2b <- res4d_branch2a
I0906 16:06:01.205830  2127 net.cpp:413] res4d_branch2b -> res4d_branch2b
I0906 16:06:01.209086  2127 net.cpp:134] Setting up res4d_branch2b
I0906 16:06:01.209118  2127 net.cpp:142] Top shape: 16 256 14 14 (802816)
I0906 16:06:01.209134  2127 net.cpp:153] Memory required for data: 3198419008
I0906 16:06:01.209177  2127 layer_factory.cpp:67] Creating layer bn4d_branch2b
I0906 16:06:01.209208  2127 net.cpp:96] Creating Layer bn4d_branch2b
I0906 16:06:01.209226  2127 net.cpp:444] bn4d_branch2b <- res4d_branch2b
I0906 16:06:01.209259  2127 net.cpp:400] bn4d_branch2b -> res4d_branch2b (in-place)
I0906 16:06:01.209338  2127 net.cpp:134] Setting up bn4d_branch2b
I0906 16:06:01.209352  2127 net.cpp:142] Top shape: 16 256 14 14 (802816)
I0906 16:06:01.209367  2127 net.cpp:153] Memory required for data: 3201630272
I0906 16:06:01.209412  2127 layer_factory.cpp:67] Creating layer scale4d_branch2b
I0906 16:06:01.209441  2127 net.cpp:96] Creating Layer scale4d_branch2b
I0906 16:06:01.209458  2127 net.cpp:444] scale4d_branch2b <- res4d_branch2b
I0906 16:06:01.209487  2127 net.cpp:400] scale4d_branch2b -> res4d_branch2b (in-place)
I0906 16:06:01.209545  2127 layer_factory.cpp:67] Creating layer scale4d_branch2b
I0906 16:06:01.209631  2127 net.cpp:134] Setting up scale4d_branch2b
I0906 16:06:01.209647  2127 net.cpp:142] Top shape: 16 256 14 14 (802816)
I0906 16:06:01.209664  2127 net.cpp:153] Memory required for data: 3204841536
I0906 16:06:01.209709  2127 layer_factory.cpp:67] Creating layer res4d_branch2b_relu
I0906 16:06:01.209738  2127 net.cpp:96] Creating Layer res4d_branch2b_relu
I0906 16:06:01.209754  2127 net.cpp:444] res4d_branch2b_relu <- res4d_branch2b
I0906 16:06:01.209784  2127 net.cpp:400] res4d_branch2b_relu -> res4d_branch2b (in-place)
I0906 16:06:01.209813  2127 net.cpp:134] Setting up res4d_branch2b_relu
I0906 16:06:01.209825  2127 net.cpp:142] Top shape: 16 256 14 14 (802816)
I0906 16:06:01.209839  2127 net.cpp:153] Memory required for data: 3208052800
I0906 16:06:01.209863  2127 layer_factory.cpp:67] Creating layer res4d_branch2c
I0906 16:06:01.209894  2127 net.cpp:96] Creating Layer res4d_branch2c
I0906 16:06:01.209910  2127 net.cpp:444] res4d_branch2c <- res4d_branch2b
I0906 16:06:01.209942  2127 net.cpp:413] res4d_branch2c -> res4d_branch2c
I0906 16:06:01.211441  2127 net.cpp:134] Setting up res4d_branch2c
I0906 16:06:01.211474  2127 net.cpp:142] Top shape: 16 1024 14 14 (3211264)
I0906 16:06:01.211489  2127 net.cpp:153] Memory required for data: 3220897856
I0906 16:06:01.211531  2127 layer_factory.cpp:67] Creating layer bn4d_branch2c
I0906 16:06:01.211562  2127 net.cpp:96] Creating Layer bn4d_branch2c
I0906 16:06:01.211580  2127 net.cpp:444] bn4d_branch2c <- res4d_branch2c
I0906 16:06:01.211613  2127 net.cpp:400] bn4d_branch2c -> res4d_branch2c (in-place)
I0906 16:06:01.211694  2127 net.cpp:134] Setting up bn4d_branch2c
I0906 16:06:01.211709  2127 net.cpp:142] Top shape: 16 1024 14 14 (3211264)
I0906 16:06:01.211722  2127 net.cpp:153] Memory required for data: 3233742912
I0906 16:06:01.211767  2127 layer_factory.cpp:67] Creating layer scale4d_branch2c
I0906 16:06:01.211797  2127 net.cpp:96] Creating Layer scale4d_branch2c
I0906 16:06:01.211813  2127 net.cpp:444] scale4d_branch2c <- res4d_branch2c
I0906 16:06:01.211843  2127 net.cpp:400] scale4d_branch2c -> res4d_branch2c (in-place)
I0906 16:06:01.211904  2127 layer_factory.cpp:67] Creating layer scale4d_branch2c
I0906 16:06:01.211994  2127 net.cpp:134] Setting up scale4d_branch2c
I0906 16:06:01.212011  2127 net.cpp:142] Top shape: 16 1024 14 14 (3211264)
I0906 16:06:01.212025  2127 net.cpp:153] Memory required for data: 3246587968
I0906 16:06:01.212060  2127 layer_factory.cpp:67] Creating layer res4d
I0906 16:06:01.212086  2127 net.cpp:96] Creating Layer res4d
I0906 16:06:01.212105  2127 net.cpp:444] res4d <- res4c_res4c_relu_0_split_1
I0906 16:06:01.212127  2127 net.cpp:444] res4d <- res4d_branch2c
I0906 16:06:01.212155  2127 net.cpp:413] res4d -> res4d
I0906 16:06:01.212198  2127 net.cpp:134] Setting up res4d
I0906 16:06:01.212213  2127 net.cpp:142] Top shape: 16 1024 14 14 (3211264)
I0906 16:06:01.212227  2127 net.cpp:153] Memory required for data: 3259433024
I0906 16:06:01.212249  2127 layer_factory.cpp:67] Creating layer res4d_relu
I0906 16:06:01.212275  2127 net.cpp:96] Creating Layer res4d_relu
I0906 16:06:01.212290  2127 net.cpp:444] res4d_relu <- res4d
I0906 16:06:01.212318  2127 net.cpp:400] res4d_relu -> res4d (in-place)
I0906 16:06:01.212345  2127 net.cpp:134] Setting up res4d_relu
I0906 16:06:01.212357  2127 net.cpp:142] Top shape: 16 1024 14 14 (3211264)
I0906 16:06:01.212370  2127 net.cpp:153] Memory required for data: 3272278080
I0906 16:06:01.212391  2127 layer_factory.cpp:67] Creating layer res4d_res4d_relu_0_split
I0906 16:06:01.212416  2127 net.cpp:96] Creating Layer res4d_res4d_relu_0_split
I0906 16:06:01.212432  2127 net.cpp:444] res4d_res4d_relu_0_split <- res4d
I0906 16:06:01.212461  2127 net.cpp:413] res4d_res4d_relu_0_split -> res4d_res4d_relu_0_split_0
I0906 16:06:01.212498  2127 net.cpp:413] res4d_res4d_relu_0_split -> res4d_res4d_relu_0_split_1
I0906 16:06:01.212538  2127 net.cpp:134] Setting up res4d_res4d_relu_0_split
I0906 16:06:01.212553  2127 net.cpp:142] Top shape: 16 1024 14 14 (3211264)
I0906 16:06:01.212568  2127 net.cpp:142] Top shape: 16 1024 14 14 (3211264)
I0906 16:06:01.212581  2127 net.cpp:153] Memory required for data: 3297968192
I0906 16:06:01.212610  2127 layer_factory.cpp:67] Creating layer res4e_branch2a
I0906 16:06:01.212651  2127 net.cpp:96] Creating Layer res4e_branch2a
I0906 16:06:01.212668  2127 net.cpp:444] res4e_branch2a <- res4d_res4d_relu_0_split_0
I0906 16:06:01.212702  2127 net.cpp:413] res4e_branch2a -> res4e_branch2a
I0906 16:06:01.214231  2127 net.cpp:134] Setting up res4e_branch2a
I0906 16:06:01.214263  2127 net.cpp:142] Top shape: 16 256 14 14 (802816)
I0906 16:06:01.214279  2127 net.cpp:153] Memory required for data: 3301179456
I0906 16:06:01.214320  2127 layer_factory.cpp:67] Creating layer bn4e_branch2a
I0906 16:06:01.214351  2127 net.cpp:96] Creating Layer bn4e_branch2a
I0906 16:06:01.214370  2127 net.cpp:444] bn4e_branch2a <- res4e_branch2a
I0906 16:06:01.214402  2127 net.cpp:400] bn4e_branch2a -> res4e_branch2a (in-place)
I0906 16:06:01.214483  2127 net.cpp:134] Setting up bn4e_branch2a
I0906 16:06:01.214496  2127 net.cpp:142] Top shape: 16 256 14 14 (802816)
I0906 16:06:01.214510  2127 net.cpp:153] Memory required for data: 3304390720
I0906 16:06:01.214556  2127 layer_factory.cpp:67] Creating layer scale4e_branch2a
I0906 16:06:01.214586  2127 net.cpp:96] Creating Layer scale4e_branch2a
I0906 16:06:01.214602  2127 net.cpp:444] scale4e_branch2a <- res4e_branch2a
I0906 16:06:01.214632  2127 net.cpp:400] scale4e_branch2a -> res4e_branch2a (in-place)
I0906 16:06:01.214689  2127 layer_factory.cpp:67] Creating layer scale4e_branch2a
I0906 16:06:01.214776  2127 net.cpp:134] Setting up scale4e_branch2a
I0906 16:06:01.214792  2127 net.cpp:142] Top shape: 16 256 14 14 (802816)
I0906 16:06:01.214805  2127 net.cpp:153] Memory required for data: 3307601984
I0906 16:06:01.214840  2127 layer_factory.cpp:67] Creating layer res4e_branch2a_relu
I0906 16:06:01.214867  2127 net.cpp:96] Creating Layer res4e_branch2a_relu
I0906 16:06:01.214884  2127 net.cpp:444] res4e_branch2a_relu <- res4e_branch2a
I0906 16:06:01.214913  2127 net.cpp:400] res4e_branch2a_relu -> res4e_branch2a (in-place)
I0906 16:06:01.214942  2127 net.cpp:134] Setting up res4e_branch2a_relu
I0906 16:06:01.214954  2127 net.cpp:142] Top shape: 16 256 14 14 (802816)
I0906 16:06:01.214968  2127 net.cpp:153] Memory required for data: 3310813248
I0906 16:06:01.214993  2127 layer_factory.cpp:67] Creating layer res4e_branch2b
I0906 16:06:01.215023  2127 net.cpp:96] Creating Layer res4e_branch2b
I0906 16:06:01.215039  2127 net.cpp:444] res4e_branch2b <- res4e_branch2a
I0906 16:06:01.215071  2127 net.cpp:413] res4e_branch2b -> res4e_branch2b
I0906 16:06:01.218257  2127 net.cpp:134] Setting up res4e_branch2b
I0906 16:06:01.218291  2127 net.cpp:142] Top shape: 16 256 14 14 (802816)
I0906 16:06:01.218305  2127 net.cpp:153] Memory required for data: 3314024512
I0906 16:06:01.218348  2127 layer_factory.cpp:67] Creating layer bn4e_branch2b
I0906 16:06:01.218379  2127 net.cpp:96] Creating Layer bn4e_branch2b
I0906 16:06:01.218397  2127 net.cpp:444] bn4e_branch2b <- res4e_branch2b
I0906 16:06:01.218430  2127 net.cpp:400] bn4e_branch2b -> res4e_branch2b (in-place)
I0906 16:06:01.218510  2127 net.cpp:134] Setting up bn4e_branch2b
I0906 16:06:01.218525  2127 net.cpp:142] Top shape: 16 256 14 14 (802816)
I0906 16:06:01.218539  2127 net.cpp:153] Memory required for data: 3317235776
I0906 16:06:01.218585  2127 layer_factory.cpp:67] Creating layer scale4e_branch2b
I0906 16:06:01.218613  2127 net.cpp:96] Creating Layer scale4e_branch2b
I0906 16:06:01.218631  2127 net.cpp:444] scale4e_branch2b <- res4e_branch2b
I0906 16:06:01.218660  2127 net.cpp:400] scale4e_branch2b -> res4e_branch2b (in-place)
I0906 16:06:01.218717  2127 layer_factory.cpp:67] Creating layer scale4e_branch2b
I0906 16:06:01.218802  2127 net.cpp:134] Setting up scale4e_branch2b
I0906 16:06:01.218818  2127 net.cpp:142] Top shape: 16 256 14 14 (802816)
I0906 16:06:01.218832  2127 net.cpp:153] Memory required for data: 3320447040
I0906 16:06:01.218866  2127 layer_factory.cpp:67] Creating layer res4e_branch2b_relu
I0906 16:06:01.218894  2127 net.cpp:96] Creating Layer res4e_branch2b_relu
I0906 16:06:01.218910  2127 net.cpp:444] res4e_branch2b_relu <- res4e_branch2b
I0906 16:06:01.218956  2127 net.cpp:400] res4e_branch2b_relu -> res4e_branch2b (in-place)
I0906 16:06:01.219004  2127 net.cpp:134] Setting up res4e_branch2b_relu
I0906 16:06:01.219018  2127 net.cpp:142] Top shape: 16 256 14 14 (802816)
I0906 16:06:01.219033  2127 net.cpp:153] Memory required for data: 3323658304
I0906 16:06:01.219058  2127 layer_factory.cpp:67] Creating layer res4e_branch2c
I0906 16:06:01.219089  2127 net.cpp:96] Creating Layer res4e_branch2c
I0906 16:06:01.219106  2127 net.cpp:444] res4e_branch2c <- res4e_branch2b
I0906 16:06:01.219139  2127 net.cpp:413] res4e_branch2c -> res4e_branch2c
I0906 16:06:01.220641  2127 net.cpp:134] Setting up res4e_branch2c
I0906 16:06:01.220674  2127 net.cpp:142] Top shape: 16 1024 14 14 (3211264)
I0906 16:06:01.220690  2127 net.cpp:153] Memory required for data: 3336503360
I0906 16:06:01.220732  2127 layer_factory.cpp:67] Creating layer bn4e_branch2c
I0906 16:06:01.220764  2127 net.cpp:96] Creating Layer bn4e_branch2c
I0906 16:06:01.220783  2127 net.cpp:444] bn4e_branch2c <- res4e_branch2c
I0906 16:06:01.220816  2127 net.cpp:400] bn4e_branch2c -> res4e_branch2c (in-place)
I0906 16:06:01.220897  2127 net.cpp:134] Setting up bn4e_branch2c
I0906 16:06:01.220911  2127 net.cpp:142] Top shape: 16 1024 14 14 (3211264)
I0906 16:06:01.220926  2127 net.cpp:153] Memory required for data: 3349348416
I0906 16:06:01.220973  2127 layer_factory.cpp:67] Creating layer scale4e_branch2c
I0906 16:06:01.221004  2127 net.cpp:96] Creating Layer scale4e_branch2c
I0906 16:06:01.221020  2127 net.cpp:444] scale4e_branch2c <- res4e_branch2c
I0906 16:06:01.221050  2127 net.cpp:400] scale4e_branch2c -> res4e_branch2c (in-place)
I0906 16:06:01.221112  2127 layer_factory.cpp:67] Creating layer scale4e_branch2c
I0906 16:06:01.221202  2127 net.cpp:134] Setting up scale4e_branch2c
I0906 16:06:01.221218  2127 net.cpp:142] Top shape: 16 1024 14 14 (3211264)
I0906 16:06:01.221232  2127 net.cpp:153] Memory required for data: 3362193472
I0906 16:06:01.221267  2127 layer_factory.cpp:67] Creating layer res4e
I0906 16:06:01.221295  2127 net.cpp:96] Creating Layer res4e
I0906 16:06:01.221312  2127 net.cpp:444] res4e <- res4d_res4d_relu_0_split_1
I0906 16:06:01.221335  2127 net.cpp:444] res4e <- res4e_branch2c
I0906 16:06:01.221364  2127 net.cpp:413] res4e -> res4e
I0906 16:06:01.221406  2127 net.cpp:134] Setting up res4e
I0906 16:06:01.221422  2127 net.cpp:142] Top shape: 16 1024 14 14 (3211264)
I0906 16:06:01.221436  2127 net.cpp:153] Memory required for data: 3375038528
I0906 16:06:01.221459  2127 layer_factory.cpp:67] Creating layer res4e_relu
I0906 16:06:01.221484  2127 net.cpp:96] Creating Layer res4e_relu
I0906 16:06:01.221501  2127 net.cpp:444] res4e_relu <- res4e
I0906 16:06:01.221530  2127 net.cpp:400] res4e_relu -> res4e (in-place)
I0906 16:06:01.221559  2127 net.cpp:134] Setting up res4e_relu
I0906 16:06:01.221570  2127 net.cpp:142] Top shape: 16 1024 14 14 (3211264)
I0906 16:06:01.221585  2127 net.cpp:153] Memory required for data: 3387883584
I0906 16:06:01.221606  2127 layer_factory.cpp:67] Creating layer res4e_res4e_relu_0_split
I0906 16:06:01.221630  2127 net.cpp:96] Creating Layer res4e_res4e_relu_0_split
I0906 16:06:01.221647  2127 net.cpp:444] res4e_res4e_relu_0_split <- res4e
I0906 16:06:01.221676  2127 net.cpp:413] res4e_res4e_relu_0_split -> res4e_res4e_relu_0_split_0
I0906 16:06:01.221714  2127 net.cpp:413] res4e_res4e_relu_0_split -> res4e_res4e_relu_0_split_1
I0906 16:06:01.221752  2127 net.cpp:134] Setting up res4e_res4e_relu_0_split
I0906 16:06:01.221768  2127 net.cpp:142] Top shape: 16 1024 14 14 (3211264)
I0906 16:06:01.221783  2127 net.cpp:142] Top shape: 16 1024 14 14 (3211264)
I0906 16:06:01.221796  2127 net.cpp:153] Memory required for data: 3413573696
I0906 16:06:01.221822  2127 layer_factory.cpp:67] Creating layer res4f_branch2a
I0906 16:06:01.221851  2127 net.cpp:96] Creating Layer res4f_branch2a
I0906 16:06:01.221868  2127 net.cpp:444] res4f_branch2a <- res4e_res4e_relu_0_split_0
I0906 16:06:01.221902  2127 net.cpp:413] res4f_branch2a -> res4f_branch2a
I0906 16:06:01.223423  2127 net.cpp:134] Setting up res4f_branch2a
I0906 16:06:01.223466  2127 net.cpp:142] Top shape: 16 256 14 14 (802816)
I0906 16:06:01.223482  2127 net.cpp:153] Memory required for data: 3416784960
I0906 16:06:01.223525  2127 layer_factory.cpp:67] Creating layer bn4f_branch2a
I0906 16:06:01.223556  2127 net.cpp:96] Creating Layer bn4f_branch2a
I0906 16:06:01.223574  2127 net.cpp:444] bn4f_branch2a <- res4f_branch2a
I0906 16:06:01.223608  2127 net.cpp:400] bn4f_branch2a -> res4f_branch2a (in-place)
I0906 16:06:01.223686  2127 net.cpp:134] Setting up bn4f_branch2a
I0906 16:06:01.223701  2127 net.cpp:142] Top shape: 16 256 14 14 (802816)
I0906 16:06:01.223714  2127 net.cpp:153] Memory required for data: 3419996224
I0906 16:06:01.223762  2127 layer_factory.cpp:67] Creating layer scale4f_branch2a
I0906 16:06:01.223790  2127 net.cpp:96] Creating Layer scale4f_branch2a
I0906 16:06:01.223807  2127 net.cpp:444] scale4f_branch2a <- res4f_branch2a
I0906 16:06:01.223836  2127 net.cpp:400] scale4f_branch2a -> res4f_branch2a (in-place)
I0906 16:06:01.223893  2127 layer_factory.cpp:67] Creating layer scale4f_branch2a
I0906 16:06:01.223980  2127 net.cpp:134] Setting up scale4f_branch2a
I0906 16:06:01.223996  2127 net.cpp:142] Top shape: 16 256 14 14 (802816)
I0906 16:06:01.224010  2127 net.cpp:153] Memory required for data: 3423207488
I0906 16:06:01.224045  2127 layer_factory.cpp:67] Creating layer res4f_branch2a_relu
I0906 16:06:01.224071  2127 net.cpp:96] Creating Layer res4f_branch2a_relu
I0906 16:06:01.224088  2127 net.cpp:444] res4f_branch2a_relu <- res4f_branch2a
I0906 16:06:01.224117  2127 net.cpp:400] res4f_branch2a_relu -> res4f_branch2a (in-place)
I0906 16:06:01.224146  2127 net.cpp:134] Setting up res4f_branch2a_relu
I0906 16:06:01.224159  2127 net.cpp:142] Top shape: 16 256 14 14 (802816)
I0906 16:06:01.224171  2127 net.cpp:153] Memory required for data: 3426418752
I0906 16:06:01.224195  2127 layer_factory.cpp:67] Creating layer res4f_branch2b
I0906 16:06:01.224225  2127 net.cpp:96] Creating Layer res4f_branch2b
I0906 16:06:01.224242  2127 net.cpp:444] res4f_branch2b <- res4f_branch2a
I0906 16:06:01.224273  2127 net.cpp:413] res4f_branch2b -> res4f_branch2b
I0906 16:06:01.227470  2127 net.cpp:134] Setting up res4f_branch2b
I0906 16:06:01.227504  2127 net.cpp:142] Top shape: 16 256 14 14 (802816)
I0906 16:06:01.227520  2127 net.cpp:153] Memory required for data: 3429630016
I0906 16:06:01.227561  2127 layer_factory.cpp:67] Creating layer bn4f_branch2b
I0906 16:06:01.227592  2127 net.cpp:96] Creating Layer bn4f_branch2b
I0906 16:06:01.227612  2127 net.cpp:444] bn4f_branch2b <- res4f_branch2b
I0906 16:06:01.227645  2127 net.cpp:400] bn4f_branch2b -> res4f_branch2b (in-place)
I0906 16:06:01.227727  2127 net.cpp:134] Setting up bn4f_branch2b
I0906 16:06:01.227741  2127 net.cpp:142] Top shape: 16 256 14 14 (802816)
I0906 16:06:01.227756  2127 net.cpp:153] Memory required for data: 3432841280
I0906 16:06:01.227802  2127 layer_factory.cpp:67] Creating layer scale4f_branch2b
I0906 16:06:01.227830  2127 net.cpp:96] Creating Layer scale4f_branch2b
I0906 16:06:01.227847  2127 net.cpp:444] scale4f_branch2b <- res4f_branch2b
I0906 16:06:01.227877  2127 net.cpp:400] scale4f_branch2b -> res4f_branch2b (in-place)
I0906 16:06:01.227934  2127 layer_factory.cpp:67] Creating layer scale4f_branch2b
I0906 16:06:01.228022  2127 net.cpp:134] Setting up scale4f_branch2b
I0906 16:06:01.228039  2127 net.cpp:142] Top shape: 16 256 14 14 (802816)
I0906 16:06:01.228052  2127 net.cpp:153] Memory required for data: 3436052544
I0906 16:06:01.228087  2127 layer_factory.cpp:67] Creating layer res4f_branch2b_relu
I0906 16:06:01.228114  2127 net.cpp:96] Creating Layer res4f_branch2b_relu
I0906 16:06:01.228132  2127 net.cpp:444] res4f_branch2b_relu <- res4f_branch2b
I0906 16:06:01.228160  2127 net.cpp:400] res4f_branch2b_relu -> res4f_branch2b (in-place)
I0906 16:06:01.228190  2127 net.cpp:134] Setting up res4f_branch2b_relu
I0906 16:06:01.228202  2127 net.cpp:142] Top shape: 16 256 14 14 (802816)
I0906 16:06:01.228219  2127 net.cpp:153] Memory required for data: 3439263808
I0906 16:06:01.228253  2127 layer_factory.cpp:67] Creating layer res4f_branch2c
I0906 16:06:01.228284  2127 net.cpp:96] Creating Layer res4f_branch2c
I0906 16:06:01.228302  2127 net.cpp:444] res4f_branch2c <- res4f_branch2b
I0906 16:06:01.228335  2127 net.cpp:413] res4f_branch2c -> res4f_branch2c
I0906 16:06:01.229832  2127 net.cpp:134] Setting up res4f_branch2c
I0906 16:06:01.229864  2127 net.cpp:142] Top shape: 16 1024 14 14 (3211264)
I0906 16:06:01.229881  2127 net.cpp:153] Memory required for data: 3452108864
I0906 16:06:01.229921  2127 layer_factory.cpp:67] Creating layer bn4f_branch2c
I0906 16:06:01.229952  2127 net.cpp:96] Creating Layer bn4f_branch2c
I0906 16:06:01.229971  2127 net.cpp:444] bn4f_branch2c <- res4f_branch2c
I0906 16:06:01.230003  2127 net.cpp:400] bn4f_branch2c -> res4f_branch2c (in-place)
I0906 16:06:01.230085  2127 net.cpp:134] Setting up bn4f_branch2c
I0906 16:06:01.230099  2127 net.cpp:142] Top shape: 16 1024 14 14 (3211264)
I0906 16:06:01.230113  2127 net.cpp:153] Memory required for data: 3464953920
I0906 16:06:01.230244  2127 layer_factory.cpp:67] Creating layer scale4f_branch2c
I0906 16:06:01.230278  2127 net.cpp:96] Creating Layer scale4f_branch2c
I0906 16:06:01.230296  2127 net.cpp:444] scale4f_branch2c <- res4f_branch2c
I0906 16:06:01.230325  2127 net.cpp:400] scale4f_branch2c -> res4f_branch2c (in-place)
I0906 16:06:01.230388  2127 layer_factory.cpp:67] Creating layer scale4f_branch2c
I0906 16:06:01.230480  2127 net.cpp:134] Setting up scale4f_branch2c
I0906 16:06:01.230496  2127 net.cpp:142] Top shape: 16 1024 14 14 (3211264)
I0906 16:06:01.230510  2127 net.cpp:153] Memory required for data: 3477798976
I0906 16:06:01.230546  2127 layer_factory.cpp:67] Creating layer res4f
I0906 16:06:01.230574  2127 net.cpp:96] Creating Layer res4f
I0906 16:06:01.230592  2127 net.cpp:444] res4f <- res4e_res4e_relu_0_split_1
I0906 16:06:01.230615  2127 net.cpp:444] res4f <- res4f_branch2c
I0906 16:06:01.230643  2127 net.cpp:413] res4f -> res4f
I0906 16:06:01.230685  2127 net.cpp:134] Setting up res4f
I0906 16:06:01.230701  2127 net.cpp:142] Top shape: 16 1024 14 14 (3211264)
I0906 16:06:01.230715  2127 net.cpp:153] Memory required for data: 3490644032
I0906 16:06:01.230737  2127 layer_factory.cpp:67] Creating layer res4f_relu
I0906 16:06:01.230763  2127 net.cpp:96] Creating Layer res4f_relu
I0906 16:06:01.230779  2127 net.cpp:444] res4f_relu <- res4f
I0906 16:06:01.230808  2127 net.cpp:400] res4f_relu -> res4f (in-place)
I0906 16:06:01.230836  2127 net.cpp:134] Setting up res4f_relu
I0906 16:06:01.230849  2127 net.cpp:142] Top shape: 16 1024 14 14 (3211264)
I0906 16:06:01.230862  2127 net.cpp:153] Memory required for data: 3503489088
I0906 16:06:01.230883  2127 layer_factory.cpp:67] Creating layer res4f_res4f_relu_0_split
I0906 16:06:01.230908  2127 net.cpp:96] Creating Layer res4f_res4f_relu_0_split
I0906 16:06:01.230924  2127 net.cpp:444] res4f_res4f_relu_0_split <- res4f
I0906 16:06:01.230953  2127 net.cpp:413] res4f_res4f_relu_0_split -> res4f_res4f_relu_0_split_0
I0906 16:06:01.230990  2127 net.cpp:413] res4f_res4f_relu_0_split -> res4f_res4f_relu_0_split_1
I0906 16:06:01.231030  2127 net.cpp:134] Setting up res4f_res4f_relu_0_split
I0906 16:06:01.231045  2127 net.cpp:142] Top shape: 16 1024 14 14 (3211264)
I0906 16:06:01.231060  2127 net.cpp:142] Top shape: 16 1024 14 14 (3211264)
I0906 16:06:01.231073  2127 net.cpp:153] Memory required for data: 3529179200
I0906 16:06:01.231099  2127 layer_factory.cpp:67] Creating layer res5a_branch1
I0906 16:06:01.231129  2127 net.cpp:96] Creating Layer res5a_branch1
I0906 16:06:01.231145  2127 net.cpp:444] res5a_branch1 <- res4f_res4f_relu_0_split_0
I0906 16:06:01.231179  2127 net.cpp:413] res5a_branch1 -> res5a_branch1
I0906 16:06:01.242183  2127 net.cpp:134] Setting up res5a_branch1
I0906 16:06:01.242218  2127 net.cpp:142] Top shape: 16 2048 7 7 (1605632)
I0906 16:06:01.242233  2127 net.cpp:153] Memory required for data: 3535601728
I0906 16:06:01.242274  2127 layer_factory.cpp:67] Creating layer bn5a_branch1
I0906 16:06:01.242310  2127 net.cpp:96] Creating Layer bn5a_branch1
I0906 16:06:01.242337  2127 net.cpp:444] bn5a_branch1 <- res5a_branch1
I0906 16:06:01.242372  2127 net.cpp:400] bn5a_branch1 -> res5a_branch1 (in-place)
I0906 16:06:01.242455  2127 net.cpp:134] Setting up bn5a_branch1
I0906 16:06:01.242470  2127 net.cpp:142] Top shape: 16 2048 7 7 (1605632)
I0906 16:06:01.242485  2127 net.cpp:153] Memory required for data: 3542024256
I0906 16:06:01.242532  2127 layer_factory.cpp:67] Creating layer scale5a_branch1
I0906 16:06:01.242560  2127 net.cpp:96] Creating Layer scale5a_branch1
I0906 16:06:01.242578  2127 net.cpp:444] scale5a_branch1 <- res5a_branch1
I0906 16:06:01.242607  2127 net.cpp:400] scale5a_branch1 -> res5a_branch1 (in-place)
I0906 16:06:01.242673  2127 layer_factory.cpp:67] Creating layer scale5a_branch1
I0906 16:06:01.242769  2127 net.cpp:134] Setting up scale5a_branch1
I0906 16:06:01.242785  2127 net.cpp:142] Top shape: 16 2048 7 7 (1605632)
I0906 16:06:01.242799  2127 net.cpp:153] Memory required for data: 3548446784
I0906 16:06:01.242839  2127 layer_factory.cpp:67] Creating layer res5a_branch2a
I0906 16:06:01.242871  2127 net.cpp:96] Creating Layer res5a_branch2a
I0906 16:06:01.242889  2127 net.cpp:444] res5a_branch2a <- res4f_res4f_relu_0_split_1
I0906 16:06:01.242959  2127 net.cpp:413] res5a_branch2a -> res5a_branch2a
I0906 16:06:01.245823  2127 net.cpp:134] Setting up res5a_branch2a
I0906 16:06:01.245857  2127 net.cpp:142] Top shape: 16 512 7 7 (401408)
I0906 16:06:01.245872  2127 net.cpp:153] Memory required for data: 3550052416
I0906 16:06:01.245913  2127 layer_factory.cpp:67] Creating layer bn5a_branch2a
I0906 16:06:01.245944  2127 net.cpp:96] Creating Layer bn5a_branch2a
I0906 16:06:01.245963  2127 net.cpp:444] bn5a_branch2a <- res5a_branch2a
I0906 16:06:01.245996  2127 net.cpp:400] bn5a_branch2a -> res5a_branch2a (in-place)
I0906 16:06:01.246078  2127 net.cpp:134] Setting up bn5a_branch2a
I0906 16:06:01.246093  2127 net.cpp:142] Top shape: 16 512 7 7 (401408)
I0906 16:06:01.246106  2127 net.cpp:153] Memory required for data: 3551658048
I0906 16:06:01.246152  2127 layer_factory.cpp:67] Creating layer scale5a_branch2a
I0906 16:06:01.246182  2127 net.cpp:96] Creating Layer scale5a_branch2a
I0906 16:06:01.246199  2127 net.cpp:444] scale5a_branch2a <- res5a_branch2a
I0906 16:06:01.246228  2127 net.cpp:400] scale5a_branch2a -> res5a_branch2a (in-place)
I0906 16:06:01.246286  2127 layer_factory.cpp:67] Creating layer scale5a_branch2a
I0906 16:06:01.246373  2127 net.cpp:134] Setting up scale5a_branch2a
I0906 16:06:01.246389  2127 net.cpp:142] Top shape: 16 512 7 7 (401408)
I0906 16:06:01.246403  2127 net.cpp:153] Memory required for data: 3553263680
I0906 16:06:01.246438  2127 layer_factory.cpp:67] Creating layer res5a_branch2a_relu
I0906 16:06:01.246465  2127 net.cpp:96] Creating Layer res5a_branch2a_relu
I0906 16:06:01.246482  2127 net.cpp:444] res5a_branch2a_relu <- res5a_branch2a
I0906 16:06:01.246511  2127 net.cpp:400] res5a_branch2a_relu -> res5a_branch2a (in-place)
I0906 16:06:01.246539  2127 net.cpp:134] Setting up res5a_branch2a_relu
I0906 16:06:01.246552  2127 net.cpp:142] Top shape: 16 512 7 7 (401408)
I0906 16:06:01.246565  2127 net.cpp:153] Memory required for data: 3554869312
I0906 16:06:01.246589  2127 layer_factory.cpp:67] Creating layer res5a_branch2b
I0906 16:06:01.246620  2127 net.cpp:96] Creating Layer res5a_branch2b
I0906 16:06:01.246636  2127 net.cpp:444] res5a_branch2b <- res5a_branch2a
I0906 16:06:01.246668  2127 net.cpp:413] res5a_branch2b -> res5a_branch2b
I0906 16:06:01.259008  2127 net.cpp:134] Setting up res5a_branch2b
I0906 16:06:01.259042  2127 net.cpp:142] Top shape: 16 512 7 7 (401408)
I0906 16:06:01.259058  2127 net.cpp:153] Memory required for data: 3556474944
I0906 16:06:01.259099  2127 layer_factory.cpp:67] Creating layer bn5a_branch2b
I0906 16:06:01.259130  2127 net.cpp:96] Creating Layer bn5a_branch2b
I0906 16:06:01.259150  2127 net.cpp:444] bn5a_branch2b <- res5a_branch2b
I0906 16:06:01.259181  2127 net.cpp:400] bn5a_branch2b -> res5a_branch2b (in-place)
I0906 16:06:01.259266  2127 net.cpp:134] Setting up bn5a_branch2b
I0906 16:06:01.259289  2127 net.cpp:142] Top shape: 16 512 7 7 (401408)
I0906 16:06:01.259305  2127 net.cpp:153] Memory required for data: 3558080576
I0906 16:06:01.259352  2127 layer_factory.cpp:67] Creating layer scale5a_branch2b
I0906 16:06:01.259382  2127 net.cpp:96] Creating Layer scale5a_branch2b
I0906 16:06:01.259400  2127 net.cpp:444] scale5a_branch2b <- res5a_branch2b
I0906 16:06:01.259430  2127 net.cpp:400] scale5a_branch2b -> res5a_branch2b (in-place)
I0906 16:06:01.259490  2127 layer_factory.cpp:67] Creating layer scale5a_branch2b
I0906 16:06:01.259577  2127 net.cpp:134] Setting up scale5a_branch2b
I0906 16:06:01.259593  2127 net.cpp:142] Top shape: 16 512 7 7 (401408)
I0906 16:06:01.259606  2127 net.cpp:153] Memory required for data: 3559686208
I0906 16:06:01.259640  2127 layer_factory.cpp:67] Creating layer res5a_branch2b_relu
I0906 16:06:01.259667  2127 net.cpp:96] Creating Layer res5a_branch2b_relu
I0906 16:06:01.259685  2127 net.cpp:444] res5a_branch2b_relu <- res5a_branch2b
I0906 16:06:01.259713  2127 net.cpp:400] res5a_branch2b_relu -> res5a_branch2b (in-place)
I0906 16:06:01.259742  2127 net.cpp:134] Setting up res5a_branch2b_relu
I0906 16:06:01.259754  2127 net.cpp:142] Top shape: 16 512 7 7 (401408)
I0906 16:06:01.259768  2127 net.cpp:153] Memory required for data: 3561291840
I0906 16:06:01.259791  2127 layer_factory.cpp:67] Creating layer res5a_branch2c
I0906 16:06:01.259822  2127 net.cpp:96] Creating Layer res5a_branch2c
I0906 16:06:01.259838  2127 net.cpp:444] res5a_branch2c <- res5a_branch2b
I0906 16:06:01.259871  2127 net.cpp:413] res5a_branch2c -> res5a_branch2c
I0906 16:06:01.265451  2127 net.cpp:134] Setting up res5a_branch2c
I0906 16:06:01.265486  2127 net.cpp:142] Top shape: 16 2048 7 7 (1605632)
I0906 16:06:01.265501  2127 net.cpp:153] Memory required for data: 3567714368
I0906 16:06:01.265542  2127 layer_factory.cpp:67] Creating layer bn5a_branch2c
I0906 16:06:01.265573  2127 net.cpp:96] Creating Layer bn5a_branch2c
I0906 16:06:01.265591  2127 net.cpp:444] bn5a_branch2c <- res5a_branch2c
I0906 16:06:01.265625  2127 net.cpp:400] bn5a_branch2c -> res5a_branch2c (in-place)
I0906 16:06:01.265712  2127 net.cpp:134] Setting up bn5a_branch2c
I0906 16:06:01.265729  2127 net.cpp:142] Top shape: 16 2048 7 7 (1605632)
I0906 16:06:01.265744  2127 net.cpp:153] Memory required for data: 3574136896
I0906 16:06:01.265794  2127 layer_factory.cpp:67] Creating layer scale5a_branch2c
I0906 16:06:01.265825  2127 net.cpp:96] Creating Layer scale5a_branch2c
I0906 16:06:01.265842  2127 net.cpp:444] scale5a_branch2c <- res5a_branch2c
I0906 16:06:01.265872  2127 net.cpp:400] scale5a_branch2c -> res5a_branch2c (in-place)
I0906 16:06:01.265946  2127 layer_factory.cpp:67] Creating layer scale5a_branch2c
I0906 16:06:01.266052  2127 net.cpp:134] Setting up scale5a_branch2c
I0906 16:06:01.266068  2127 net.cpp:142] Top shape: 16 2048 7 7 (1605632)
I0906 16:06:01.266083  2127 net.cpp:153] Memory required for data: 3580559424
I0906 16:06:01.266119  2127 layer_factory.cpp:67] Creating layer res5a
I0906 16:06:01.266145  2127 net.cpp:96] Creating Layer res5a
I0906 16:06:01.266162  2127 net.cpp:444] res5a <- res5a_branch1
I0906 16:06:01.266186  2127 net.cpp:444] res5a <- res5a_branch2c
I0906 16:06:01.266216  2127 net.cpp:413] res5a -> res5a
I0906 16:06:01.266259  2127 net.cpp:134] Setting up res5a
I0906 16:06:01.266275  2127 net.cpp:142] Top shape: 16 2048 7 7 (1605632)
…
I0906 16:06:01.892972  2127 net.cpp:142] Top shape: 16 256 14 14 (802816)
I0906 16:06:01.892987  2127 net.cpp:153] Memory required for data: 3188785344
I0906 16:06:01.893041  2127 layer_factory.cpp:67] Creating layer scale4d_branch2a
I0906 16:06:01.893074  2127 net.cpp:96] Creating Layer scale4d_branch2a
I0906 16:06:01.893091  2127 net.cpp:444] scale4d_branch2a <- res4d_branch2a
I0906 16:06:01.893123  2127 net.cpp:400] scale4d_branch2a -> res4d_branch2a (in-place)
I0906 16:06:01.893189  2127 layer_factory.cpp:67] Creating layer scale4d_branch2a
I0906 16:06:01.893285  2127 net.cpp:134] Setting up scale4d_branch2a
I0906 16:06:01.893301  2127 net.cpp:142] Top shape: 16 256 14 14 (802816)
I0906 16:06:01.893314  2127 net.cpp:153] Memory required for data: 3191996608
I0906 16:06:01.893349  2127 layer_factory.cpp:67] Creating layer res4d_branch2a_relu
I0906 16:06:01.893375  2127 net.cpp:96] Creating Layer res4d_branch2a_relu
I0906 16:06:01.893393  2127 net.cpp:444] res4d_branch2a_relu <- res4d_branch2a
I0906 16:06:01.893424  2127 net.cpp:400] res4d_branch2a_relu -> res4d_branch2a (in-place)
I0906 16:06:01.893452  2127 net.cpp:134] Setting up res4d_branch2a_relu
I0906 16:06:01.893465  2127 net.cpp:142] Top shape: 16 256 14 14 (802816)
I0906 16:06:01.893477  2127 net.cpp:153] Memory required for data: 3195207872
I0906 16:06:01.893501  2127 layer_factory.cpp:67] Creating layer res4d_branch2b
I0906 16:06:01.893530  2127 net.cpp:96] Creating Layer res4d_branch2b
I0906 16:06:01.893546  2127 net.cpp:444] res4d_branch2b <- res4d_branch2a
I0906 16:06:01.893577  2127 net.cpp:413] res4d_branch2b -> res4d_branch2b
I0906 16:06:01.896764  2127 net.cpp:134] Setting up res4d_branch2b
I0906 16:06:01.896800  2127 net.cpp:142] Top shape: 16 256 14 14 (802816)
I0906 16:06:01.896823  2127 net.cpp:153] Memory required for data: 3198419136
I0906 16:06:01.896867  2127 layer_factory.cpp:67] Creating layer bn4d_branch2b
I0906 16:06:01.896898  2127 net.cpp:96] Creating Layer bn4d_branch2b
I0906 16:06:01.896917  2127 net.cpp:444] bn4d_branch2b <- res4d_branch2b
I0906 16:06:01.896950  2127 net.cpp:400] bn4d_branch2b -> res4d_branch2b (in-place)
I0906 16:06:01.897034  2127 net.cpp:134] Setting up bn4d_branch2b
I0906 16:06:01.897052  2127 net.cpp:142] Top shape: 16 256 14 14 (802816)
I0906 16:06:01.897065  2127 net.cpp:153] Memory required for data: 3201630400
I0906 16:06:01.897115  2127 layer_factory.cpp:67] Creating layer scale4d_branch2b
I0906 16:06:01.897145  2127 net.cpp:96] Creating Layer scale4d_branch2b
I0906 16:06:01.897163  2127 net.cpp:444] scale4d_branch2b <- res4d_branch2b
I0906 16:06:01.897193  2127 net.cpp:400] scale4d_branch2b -> res4d_branch2b (in-place)
I0906 16:06:01.897251  2127 layer_factory.cpp:67] Creating layer scale4d_branch2b
I0906 16:06:01.897337  2127 net.cpp:134] Setting up scale4d_branch2b
I0906 16:06:01.897353  2127 net.cpp:142] Top shape: 16 256 14 14 (802816)
I0906 16:06:01.897367  2127 net.cpp:153] Memory required for data: 3204841664
I0906 16:06:01.897402  2127 layer_factory.cpp:67] Creating layer res4d_branch2b_relu
I0906 16:06:01.897428  2127 net.cpp:96] Creating Layer res4d_branch2b_relu
I0906 16:06:01.897444  2127 net.cpp:444] res4d_branch2b_relu <- res4d_branch2b
I0906 16:06:01.897473  2127 net.cpp:400] res4d_branch2b_relu -> res4d_branch2b (in-place)
I0906 16:06:01.897502  2127 net.cpp:134] Setting up res4d_branch2b_relu
I0906 16:06:01.897514  2127 net.cpp:142] Top shape: 16 256 14 14 (802816)
I0906 16:06:01.897527  2127 net.cpp:153] Memory required for data: 3208052928
I0906 16:06:01.897552  2127 layer_factory.cpp:67] Creating layer res4d_branch2c
I0906 16:06:01.897580  2127 net.cpp:96] Creating Layer res4d_branch2c
I0906 16:06:01.897598  2127 net.cpp:444] res4d_branch2c <- res4d_branch2b
I0906 16:06:01.897629  2127 net.cpp:413] res4d_branch2c -> res4d_branch2c
I0906 16:06:01.899133  2127 net.cpp:134] Setting up res4d_branch2c
I0906 16:06:01.899166  2127 net.cpp:142] Top shape: 16 1024 14 14 (3211264)
I0906 16:06:01.899183  2127 net.cpp:153] Memory required for data: 3220897984
I0906 16:06:01.899224  2127 layer_factory.cpp:67] Creating layer bn4d_branch2c
I0906 16:06:01.899256  2127 net.cpp:96] Creating Layer bn4d_branch2c
I0906 16:06:01.899276  2127 net.cpp:444] bn4d_branch2c <- res4d_branch2c
I0906 16:06:01.899308  2127 net.cpp:400] bn4d_branch2c -> res4d_branch2c (in-place)
I0906 16:06:01.899396  2127 net.cpp:134] Setting up bn4d_branch2c
I0906 16:06:01.899413  2127 net.cpp:142] Top shape: 16 1024 14 14 (3211264)
I0906 16:06:01.899427  2127 net.cpp:153] Memory required for data: 3233743040
I0906 16:06:01.899477  2127 layer_factory.cpp:67] Creating layer scale4d_branch2c
I0906 16:06:01.899507  2127 net.cpp:96] Creating Layer scale4d_branch2c
I0906 16:06:01.899525  2127 net.cpp:444] scale4d_branch2c <- res4d_branch2c
I0906 16:06:01.899555  2127 net.cpp:400] scale4d_branch2c -> res4d_branch2c (in-place)
I0906 16:06:01.899623  2127 layer_factory.cpp:67] Creating layer scale4d_branch2c
I0906 16:06:01.899724  2127 net.cpp:134] Setting up scale4d_branch2c
I0906 16:06:01.899741  2127 net.cpp:142] Top shape: 16 1024 14 14 (3211264)
I0906 16:06:01.899755  2127 net.cpp:153] Memory required for data: 3246588096
I0906 16:06:01.899791  2127 layer_factory.cpp:67] Creating layer res4d
I0906 16:06:01.899817  2127 net.cpp:96] Creating Layer res4d
I0906 16:06:01.899835  2127 net.cpp:444] res4d <- res4c_res4c_relu_0_split_1
I0906 16:06:01.899859  2127 net.cpp:444] res4d <- res4d_branch2c
I0906 16:06:01.899888  2127 net.cpp:413] res4d -> res4d
I0906 16:06:01.899930  2127 net.cpp:134] Setting up res4d
I0906 16:06:01.899946  2127 net.cpp:142] Top shape: 16 1024 14 14 (3211264)
I0906 16:06:01.899960  2127 net.cpp:153] Memory required for data: 3259433152
I0906 16:06:01.899983  2127 layer_factory.cpp:67] Creating layer res4d_relu
I0906 16:06:01.900012  2127 net.cpp:96] Creating Layer res4d_relu
I0906 16:06:01.900035  2127 net.cpp:444] res4d_relu <- res4d
I0906 16:06:01.900066  2127 net.cpp:400] res4d_relu -> res4d (in-place)
I0906 16:06:01.900095  2127 net.cpp:134] Setting up res4d_relu
I0906 16:06:01.900107  2127 net.cpp:142] Top shape: 16 1024 14 14 (3211264)
I0906 16:06:01.900121  2127 net.cpp:153] Memory required for data: 3272278208
I0906 16:06:01.900142  2127 layer_factory.cpp:67] Creating layer res4d_res4d_relu_0_split
I0906 16:06:01.900167  2127 net.cpp:96] Creating Layer res4d_res4d_relu_0_split
I0906 16:06:01.900182  2127 net.cpp:444] res4d_res4d_relu_0_split <- res4d
I0906 16:06:01.900213  2127 net.cpp:413] res4d_res4d_relu_0_split -> res4d_res4d_relu_0_split_0
I0906 16:06:01.900249  2127 net.cpp:413] res4d_res4d_relu_0_split -> res4d_res4d_relu_0_split_1
I0906 16:06:01.900288  2127 net.cpp:134] Setting up res4d_res4d_relu_0_split
I0906 16:06:01.900303  2127 net.cpp:142] Top shape: 16 1024 14 14 (3211264)
I0906 16:06:01.900318  2127 net.cpp:142] Top shape: 16 1024 14 14 (3211264)
I0906 16:06:01.900331  2127 net.cpp:153] Memory required for data: 3297968320
I0906 16:06:01.900355  2127 layer_factory.cpp:67] Creating layer res4e_branch2a
I0906 16:06:01.900385  2127 net.cpp:96] Creating Layer res4e_branch2a
I0906 16:06:01.900401  2127 net.cpp:444] res4e_branch2a <- res4d_res4d_relu_0_split_0
I0906 16:06:01.900434  2127 net.cpp:413] res4e_branch2a -> res4e_branch2a
I0906 16:06:01.901924  2127 net.cpp:134] Setting up res4e_branch2a
I0906 16:06:01.901957  2127 net.cpp:142] Top shape: 16 256 14 14 (802816)
I0906 16:06:01.901973  2127 net.cpp:153] Memory required for data: 3301179584
I0906 16:06:01.902014  2127 layer_factory.cpp:67] Creating layer bn4e_branch2a
I0906 16:06:01.902045  2127 net.cpp:96] Creating Layer bn4e_branch2a
I0906 16:06:01.902063  2127 net.cpp:444] bn4e_branch2a <- res4e_branch2a
I0906 16:06:01.902096  2127 net.cpp:400] bn4e_branch2a -> res4e_branch2a (in-place)
I0906 16:06:01.902181  2127 net.cpp:134] Setting up bn4e_branch2a
I0906 16:06:01.902199  2127 net.cpp:142] Top shape: 16 256 14 14 (802816)
I0906 16:06:01.902212  2127 net.cpp:153] Memory required for data: 3304390848
I0906 16:06:01.902262  2127 layer_factory.cpp:67] Creating layer scale4e_branch2a
I0906 16:06:01.902292  2127 net.cpp:96] Creating Layer scale4e_branch2a
I0906 16:06:01.902310  2127 net.cpp:444] scale4e_branch2a <- res4e_branch2a
I0906 16:06:01.902340  2127 net.cpp:400] scale4e_branch2a -> res4e_branch2a (in-place)
I0906 16:06:01.902398  2127 layer_factory.cpp:67] Creating layer scale4e_branch2a
I0906 16:06:01.902490  2127 net.cpp:134] Setting up scale4e_branch2a
I0906 16:06:01.902510  2127 net.cpp:142] Top shape: 16 256 14 14 (802816)
I0906 16:06:01.902524  2127 net.cpp:153] Memory required for data: 3307602112
I0906 16:06:01.902561  2127 layer_factory.cpp:67] Creating layer res4e_branch2a_relu
I0906 16:06:01.902588  2127 net.cpp:96] Creating Layer res4e_branch2a_relu
I0906 16:06:01.902606  2127 net.cpp:444] res4e_branch2a_relu <- res4e_branch2a
I0906 16:06:01.902637  2127 net.cpp:400] res4e_branch2a_relu -> res4e_branch2a (in-place)
I0906 16:06:01.902667  2127 net.cpp:134] Setting up res4e_branch2a_relu
I0906 16:06:01.902678  2127 net.cpp:142] Top shape: 16 256 14 14 (802816)
I0906 16:06:01.902691  2127 net.cpp:153] Memory required for data: 3310813376
I0906 16:06:01.902715  2127 layer_factory.cpp:67] Creating layer res4e_branch2b
I0906 16:06:01.902745  2127 net.cpp:96] Creating Layer res4e_branch2b
I0906 16:06:01.902760  2127 net.cpp:444] res4e_branch2b <- res4e_branch2a
I0906 16:06:01.902791  2127 net.cpp:413] res4e_branch2b -> res4e_branch2b
I0906 16:06:01.906019  2127 net.cpp:134] Setting up res4e_branch2b
I0906 16:06:01.906052  2127 net.cpp:142] Top shape: 16 256 14 14 (802816)
I0906 16:06:01.906067  2127 net.cpp:153] Memory required for data: 3314024640
I0906 16:06:01.906110  2127 layer_factory.cpp:67] Creating layer bn4e_branch2b
I0906 16:06:01.906141  2127 net.cpp:96] Creating Layer bn4e_branch2b
I0906 16:06:01.906163  2127 net.cpp:444] bn4e_branch2b <- res4e_branch2b
I0906 16:06:01.906205  2127 net.cpp:400] bn4e_branch2b -> res4e_branch2b (in-place)
I0906 16:06:01.906292  2127 net.cpp:134] Setting up bn4e_branch2b
I0906 16:06:01.906311  2127 net.cpp:142] Top shape: 16 256 14 14 (802816)
I0906 16:06:01.906324  2127 net.cpp:153] Memory required for data: 3317235904
I0906 16:06:01.906374  2127 layer_factory.cpp:67] Creating layer scale4e_branch2b
I0906 16:06:01.906405  2127 net.cpp:96] Creating Layer scale4e_branch2b
I0906 16:06:01.906422  2127 net.cpp:444] scale4e_branch2b <- res4e_branch2b
I0906 16:06:01.906452  2127 net.cpp:400] scale4e_branch2b -> res4e_branch2b (in-place)
I0906 16:06:01.906510  2127 layer_factory.cpp:67] Creating layer scale4e_branch2b
I0906 16:06:01.906596  2127 net.cpp:134] Setting up scale4e_branch2b
I0906 16:06:01.906613  2127 net.cpp:142] Top shape: 16 256 14 14 (802816)
I0906 16:06:01.906626  2127 net.cpp:153] Memory required for data: 3320447168
I0906 16:06:01.906661  2127 layer_factory.cpp:67] Creating layer res4e_branch2b_relu
I0906 16:06:01.906687  2127 net.cpp:96] Creating Layer res4e_branch2b_relu
I0906 16:06:01.906704  2127 net.cpp:444] res4e_branch2b_relu <- res4e_branch2b
I0906 16:06:01.906733  2127 net.cpp:400] res4e_branch2b_relu -> res4e_branch2b (in-place)
I0906 16:06:01.906761  2127 net.cpp:134] Setting up res4e_branch2b_relu
I0906 16:06:01.906774  2127 net.cpp:142] Top shape: 16 256 14 14 (802816)
I0906 16:06:01.906786  2127 net.cpp:153] Memory required for data: 3323658432
I0906 16:06:01.906810  2127 layer_factory.cpp:67] Creating layer res4e_branch2c
I0906 16:06:01.906839  2127 net.cpp:96] Creating Layer res4e_branch2c
I0906 16:06:01.906855  2127 net.cpp:444] res4e_branch2c <- res4e_branch2b
I0906 16:06:01.906888  2127 net.cpp:413] res4e_branch2c -> res4e_branch2c
I0906 16:06:01.908391  2127 net.cpp:134] Setting up res4e_branch2c
I0906 16:06:01.908423  2127 net.cpp:142] Top shape: 16 1024 14 14 (3211264)
I0906 16:06:01.908438  2127 net.cpp:153] Memory required for data: 3336503488
I0906 16:06:01.908480  2127 layer_factory.cpp:67] Creating layer bn4e_branch2c
I0906 16:06:01.908511  2127 net.cpp:96] Creating Layer bn4e_branch2c
I0906 16:06:01.908531  2127 net.cpp:444] bn4e_branch2c <- res4e_branch2c
I0906 16:06:01.908563  2127 net.cpp:400] bn4e_branch2c -> res4e_branch2c (in-place)
I0906 16:06:01.908650  2127 net.cpp:134] Setting up bn4e_branch2c
I0906 16:06:01.908668  2127 net.cpp:142] Top shape: 16 1024 14 14 (3211264)
I0906 16:06:01.908681  2127 net.cpp:153] Memory required for data: 3349348544
I0906 16:06:01.908731  2127 layer_factory.cpp:67] Creating layer scale4e_branch2c
I0906 16:06:01.908762  2127 net.cpp:96] Creating Layer scale4e_branch2c
I0906 16:06:01.908780  2127 net.cpp:444] scale4e_branch2c <- res4e_branch2c
I0906 16:06:01.908810  2127 net.cpp:400] scale4e_branch2c -> res4e_branch2c (in-place)
I0906 16:06:01.908874  2127 layer_factory.cpp:67] Creating layer scale4e_branch2c
I0906 16:06:01.908974  2127 net.cpp:134] Setting up scale4e_branch2c
I0906 16:06:01.908994  2127 net.cpp:142] Top shape: 16 1024 14 14 (3211264)
I0906 16:06:01.909008  2127 net.cpp:153] Memory required for data: 3362193600
I0906 16:06:01.909049  2127 layer_factory.cpp:67] Creating layer res4e
I0906 16:06:01.909077  2127 net.cpp:96] Creating Layer res4e
I0906 16:06:01.909096  2127 net.cpp:444] res4e <- res4d_res4d_relu_0_split_1
I0906 16:06:01.909121  2127 net.cpp:444] res4e <- res4e_branch2c
I0906 16:06:01.909149  2127 net.cpp:413] res4e -> res4e
I0906 16:06:01.909191  2127 net.cpp:134] Setting up res4e
I0906 16:06:01.909209  2127 net.cpp:142] Top shape: 16 1024 14 14 (3211264)
I0906 16:06:01.909221  2127 net.cpp:153] Memory required for data: 3375038656
I0906 16:06:01.909243  2127 layer_factory.cpp:67] Creating layer res4e_relu
I0906 16:06:01.909270  2127 net.cpp:96] Creating Layer res4e_relu
I0906 16:06:01.909286  2127 net.cpp:444] res4e_relu <- res4e
I0906 16:06:01.909313  2127 net.cpp:400] res4e_relu -> res4e (in-place)
I0906 16:06:01.909341  2127 net.cpp:134] Setting up res4e_relu
I0906 16:06:01.909356  2127 net.cpp:142] Top shape: 16 1024 14 14 (3211264)
I0906 16:06:01.909377  2127 net.cpp:153] Memory required for data: 3387883712
I0906 16:06:01.909400  2127 layer_factory.cpp:67] Creating layer res4e_res4e_relu_0_split
I0906 16:06:01.909427  2127 net.cpp:96] Creating Layer res4e_res4e_relu_0_split
I0906 16:06:01.909445  2127 net.cpp:444] res4e_res4e_relu_0_split <- res4e
I0906 16:06:01.909474  2127 net.cpp:413] res4e_res4e_relu_0_split -> res4e_res4e_relu_0_split_0
I0906 16:06:01.909512  2127 net.cpp:413] res4e_res4e_relu_0_split -> res4e_res4e_relu_0_split_1
I0906 16:06:01.909552  2127 net.cpp:134] Setting up res4e_res4e_relu_0_split
I0906 16:06:01.909569  2127 net.cpp:142] Top shape: 16 1024 14 14 (3211264)
I0906 16:06:01.909584  2127 net.cpp:142] Top shape: 16 1024 14 14 (3211264)
I0906 16:06:01.909596  2127 net.cpp:153] Memory required for data: 3413573824
I0906 16:06:01.909622  2127 layer_factory.cpp:67] Creating layer res4f_branch2a
I0906 16:06:01.909652  2127 net.cpp:96] Creating Layer res4f_branch2a
I0906 16:06:01.909669  2127 net.cpp:444] res4f_branch2a <- res4e_res4e_relu_0_split_0
I0906 16:06:01.909701  2127 net.cpp:413] res4f_branch2a -> res4f_branch2a
I0906 16:06:01.911206  2127 net.cpp:134] Setting up res4f_branch2a
I0906 16:06:01.911239  2127 net.cpp:142] Top shape: 16 256 14 14 (802816)
I0906 16:06:01.911254  2127 net.cpp:153] Memory required for data: 3416785088
I0906 16:06:01.911296  2127 layer_factory.cpp:67] Creating layer bn4f_branch2a
I0906 16:06:01.911329  2127 net.cpp:96] Creating Layer bn4f_branch2a
I0906 16:06:01.911348  2127 net.cpp:444] bn4f_branch2a <- res4f_branch2a
I0906 16:06:01.911381  2127 net.cpp:400] bn4f_branch2a -> res4f_branch2a (in-place)
I0906 16:06:01.911469  2127 net.cpp:134] Setting up bn4f_branch2a
I0906 16:06:01.911486  2127 net.cpp:142] Top shape: 16 256 14 14 (802816)
I0906 16:06:01.911500  2127 net.cpp:153] Memory required for data: 3419996352
I0906 16:06:01.911550  2127 layer_factory.cpp:67] Creating layer scale4f_branch2a
I0906 16:06:01.911581  2127 net.cpp:96] Creating Layer scale4f_branch2a
I0906 16:06:01.911599  2127 net.cpp:444] scale4f_branch2a <- res4f_branch2a
I0906 16:06:01.911629  2127 net.cpp:400] scale4f_branch2a -> res4f_branch2a (in-place)
I0906 16:06:01.911689  2127 layer_factory.cpp:67] Creating layer scale4f_branch2a
I0906 16:06:01.911787  2127 net.cpp:134] Setting up scale4f_branch2a
I0906 16:06:01.911805  2127 net.cpp:142] Top shape: 16 256 14 14 (802816)
I0906 16:06:01.911820  2127 net.cpp:153] Memory required for data: 3423207616
I0906 16:06:01.911860  2127 layer_factory.cpp:67] Creating layer res4f_branch2a_relu
I0906 16:06:01.911890  2127 net.cpp:96] Creating Layer res4f_branch2a_relu
I0906 16:06:01.911906  2127 net.cpp:444] res4f_branch2a_relu <- res4f_branch2a
I0906 16:06:01.911937  2127 net.cpp:400] res4f_branch2a_relu -> res4f_branch2a (in-place)
I0906 16:06:01.911968  2127 net.cpp:134] Setting up res4f_branch2a_relu
I0906 16:06:01.911980  2127 net.cpp:142] Top shape: 16 256 14 14 (802816)
I0906 16:06:01.911993  2127 net.cpp:153] Memory required for data: 3426418880
I0906 16:06:01.912017  2127 layer_factory.cpp:67] Creating layer res4f_branch2b
I0906 16:06:01.912046  2127 net.cpp:96] Creating Layer res4f_branch2b
I0906 16:06:01.912063  2127 net.cpp:444] res4f_branch2b <- res4f_branch2a
I0906 16:06:01.912096  2127 net.cpp:413] res4f_branch2b -> res4f_branch2b
I0906 16:06:01.915302  2127 net.cpp:134] Setting up res4f_branch2b
I0906 16:06:01.915335  2127 net.cpp:142] Top shape: 16 256 14 14 (802816)
I0906 16:06:01.915350  2127 net.cpp:153] Memory required for data: 3429630144
I0906 16:06:01.915392  2127 layer_factory.cpp:67] Creating layer bn4f_branch2b
I0906 16:06:01.915423  2127 net.cpp:96] Creating Layer bn4f_branch2b
I0906 16:06:01.915442  2127 net.cpp:444] bn4f_branch2b <- res4f_branch2b
I0906 16:06:01.915475  2127 net.cpp:400] bn4f_branch2b -> res4f_branch2b (in-place)
I0906 16:06:01.915560  2127 net.cpp:134] Setting up bn4f_branch2b
I0906 16:06:01.915577  2127 net.cpp:142] Top shape: 16 256 14 14 (802816)
I0906 16:06:01.915591  2127 net.cpp:153] Memory required for data: 3432841408
I0906 16:06:01.915655  2127 layer_factory.cpp:67] Creating layer scale4f_branch2b
I0906 16:06:01.915704  2127 net.cpp:96] Creating Layer scale4f_branch2b
I0906 16:06:01.915722  2127 net.cpp:444] scale4f_branch2b <- res4f_branch2b
I0906 16:06:01.915753  2127 net.cpp:400] scale4f_branch2b -> res4f_branch2b (in-place)
I0906 16:06:01.915813  2127 layer_factory.cpp:67] Creating layer scale4f_branch2b
I0906 16:06:01.915905  2127 net.cpp:134] Setting up scale4f_branch2b
I0906 16:06:01.915925  2127 net.cpp:142] Top shape: 16 256 14 14 (802816)
I0906 16:06:01.915938  2127 net.cpp:153] Memory required for data: 3436052672
I0906 16:06:01.915977  2127 layer_factory.cpp:67] Creating layer res4f_branch2b_relu
I0906 16:06:01.916004  2127 net.cpp:96] Creating Layer res4f_branch2b_relu
I0906 16:06:01.916023  2127 net.cpp:444] res4f_branch2b_relu <- res4f_branch2b
I0906 16:06:01.916054  2127 net.cpp:400] res4f_branch2b_relu -> res4f_branch2b (in-place)
I0906 16:06:01.916082  2127 net.cpp:134] Setting up res4f_branch2b_relu
I0906 16:06:01.916095  2127 net.cpp:142] Top shape: 16 256 14 14 (802816)
I0906 16:06:01.916108  2127 net.cpp:153] Memory required for data: 3439263936
I0906 16:06:01.916132  2127 layer_factory.cpp:67] Creating layer res4f_branch2c
I0906 16:06:01.916162  2127 net.cpp:96] Creating Layer res4f_branch2c
I0906 16:06:01.916178  2127 net.cpp:444] res4f_branch2c <- res4f_branch2b
I0906 16:06:01.916210  2127 net.cpp:413] res4f_branch2c -> res4f_branch2c
I0906 16:06:01.917698  2127 net.cpp:134] Setting up res4f_branch2c
I0906 16:06:01.917731  2127 net.cpp:142] Top shape: 16 1024 14 14 (3211264)
I0906 16:06:01.917747  2127 net.cpp:153] Memory required for data: 3452108992
I0906 16:06:01.917789  2127 layer_factory.cpp:67] Creating layer bn4f_branch2c
I0906 16:06:01.917820  2127 net.cpp:96] Creating Layer bn4f_branch2c
I0906 16:06:01.917838  2127 net.cpp:444] bn4f_branch2c <- res4f_branch2c
I0906 16:06:01.917871  2127 net.cpp:400] bn4f_branch2c -> res4f_branch2c (in-place)
I0906 16:06:01.917958  2127 net.cpp:134] Setting up bn4f_branch2c
I0906 16:06:01.917975  2127 net.cpp:142] Top shape: 16 1024 14 14 (3211264)
I0906 16:06:01.917989  2127 net.cpp:153] Memory required for data: 3464954048
I0906 16:06:01.918123  2127 layer_factory.cpp:67] Creating layer scale4f_branch2c
I0906 16:06:01.918157  2127 net.cpp:96] Creating Layer scale4f_branch2c
I0906 16:06:01.918175  2127 net.cpp:444] scale4f_branch2c <- res4f_branch2c
I0906 16:06:01.918205  2127 net.cpp:400] scale4f_branch2c -> res4f_branch2c (in-place)
I0906 16:06:01.918267  2127 layer_factory.cpp:67] Creating layer scale4f_branch2c
I0906 16:06:01.918370  2127 net.cpp:134] Setting up scale4f_branch2c
I0906 16:06:01.918390  2127 net.cpp:142] Top shape: 16 1024 14 14 (3211264)
I0906 16:06:01.918406  2127 net.cpp:153] Memory required for data: 3477799104
I0906 16:06:01.918445  2127 layer_factory.cpp:67] Creating layer res4f
I0906 16:06:01.918473  2127 net.cpp:96] Creating Layer res4f
I0906 16:06:01.918493  2127 net.cpp:444] res4f <- res4e_res4e_relu_0_split_1
I0906 16:06:01.918517  2127 net.cpp:444] res4f <- res4f_branch2c
I0906 16:06:01.918546  2127 net.cpp:413] res4f -> res4f
I0906 16:06:01.918591  2127 net.cpp:134] Setting up res4f
I0906 16:06:01.918606  2127 net.cpp:142] Top shape: 16 1024 14 14 (3211264)
I0906 16:06:01.918620  2127 net.cpp:153] Memory required for data: 3490644160
I0906 16:06:01.918642  2127 layer_factory.cpp:67] Creating layer res4f_relu
I0906 16:06:01.918668  2127 net.cpp:96] Creating Layer res4f_relu
I0906 16:06:01.918684  2127 net.cpp:444] res4f_relu <- res4f
I0906 16:06:01.918714  2127 net.cpp:400] res4f_relu -> res4f (in-place)
I0906 16:06:01.918742  2127 net.cpp:134] Setting up res4f_relu
I0906 16:06:01.918754  2127 net.cpp:142] Top shape: 16 1024 14 14 (3211264)
I0906 16:06:01.918767  2127 net.cpp:153] Memory required for data: 3503489216
I0906 16:06:01.918788  2127 layer_factory.cpp:67] Creating layer res4f_res4f_relu_0_split
I0906 16:06:01.918812  2127 net.cpp:96] Creating Layer res4f_res4f_relu_0_split
I0906 16:06:01.918833  2127 net.cpp:444] res4f_res4f_relu_0_split <- res4f
I0906 16:06:01.918872  2127 net.cpp:413] res4f_res4f_relu_0_split -> res4f_res4f_relu_0_split_0
I0906 16:06:01.918911  2127 net.cpp:413] res4f_res4f_relu_0_split -> res4f_res4f_relu_0_split_1
I0906 16:06:01.918951  2127 net.cpp:134] Setting up res4f_res4f_relu_0_split
I0906 16:06:01.918967  2127 net.cpp:142] Top shape: 16 1024 14 14 (3211264)
I0906 16:06:01.918982  2127 net.cpp:142] Top shape: 16 1024 14 14 (3211264)
I0906 16:06:01.918994  2127 net.cpp:153] Memory required for data: 3529179328
I0906 16:06:01.919019  2127 layer_factory.cpp:67] Creating layer res5a_branch1
I0906 16:06:01.919050  2127 net.cpp:96] Creating Layer res5a_branch1
I0906 16:06:01.919067  2127 net.cpp:444] res5a_branch1 <- res4f_res4f_relu_0_split_0
I0906 16:06:01.919101  2127 net.cpp:413] res5a_branch1 -> res5a_branch1
I0906 16:06:01.930102  2127 net.cpp:134] Setting up res5a_branch1
I0906 16:06:01.930135  2127 net.cpp:142] Top shape: 16 2048 7 7 (1605632)
I0906 16:06:01.930150  2127 net.cpp:153] Memory required for data: 3535601856
I0906 16:06:01.930192  2127 layer_factory.cpp:67] Creating layer bn5a_branch1
I0906 16:06:01.930224  2127 net.cpp:96] Creating Layer bn5a_branch1
I0906 16:06:01.930243  2127 net.cpp:444] bn5a_branch1 <- res5a_branch1
I0906 16:06:01.930275  2127 net.cpp:400] bn5a_branch1 -> res5a_branch1 (in-place)
I0906 16:06:01.930364  2127 net.cpp:134] Setting up bn5a_branch1
I0906 16:06:01.930382  2127 net.cpp:142] Top shape: 16 2048 7 7 (1605632)
I0906 16:06:01.930395  2127 net.cpp:153] Memory required for data: 3542024384
I0906 16:06:01.930446  2127 layer_factory.cpp:67] Creating layer scale5a_branch1
I0906 16:06:01.930476  2127 net.cpp:96] Creating Layer scale5a_branch1
I0906 16:06:01.930495  2127 net.cpp:444] scale5a_branch1 <- res5a_branch1
I0906 16:06:01.930526  2127 net.cpp:400] scale5a_branch1 -> res5a_branch1 (in-place)
I0906 16:06:01.930593  2127 layer_factory.cpp:67] Creating layer scale5a_branch1
I0906 16:06:01.930701  2127 net.cpp:134] Setting up scale5a_branch1
I0906 16:06:01.930721  2127 net.cpp:142] Top shape: 16 2048 7 7 (1605632)
I0906 16:06:01.930735  2127 net.cpp:153] Memory required for data: 3548446912
I0906 16:06:01.930779  2127 layer_factory.cpp:67] Creating layer res5a_branch2a
I0906 16:06:01.930812  2127 net.cpp:96] Creating Layer res5a_branch2a
I0906 16:06:01.930831  2127 net.cpp:444] res5a_branch2a <- res4f_res4f_relu_0_split_1
I0906 16:06:01.930866  2127 net.cpp:413] res5a_branch2a -> res5a_branch2a
I0906 16:06:01.933748  2127 net.cpp:134] Setting up res5a_branch2a
I0906 16:06:01.933780  2127 net.cpp:142] Top shape: 16 512 7 7 (401408)
I0906 16:06:01.933796  2127 net.cpp:153] Memory required for data: 3550052544
I0906 16:06:01.933838  2127 layer_factory.cpp:67] Creating layer bn5a_branch2a
I0906 16:06:01.933869  2127 net.cpp:96] Creating Layer bn5a_branch2a
I0906 16:06:01.933888  2127 net.cpp:444] bn5a_branch2a <- res5a_branch2a
I0906 16:06:01.933921  2127 net.cpp:400] bn5a_branch2a -> res5a_branch2a (in-place)
I0906 16:06:01.934005  2127 net.cpp:134] Setting up bn5a_branch2a
I0906 16:06:01.934022  2127 net.cpp:142] Top shape: 16 512 7 7 (401408)
I0906 16:06:01.934036  2127 net.cpp:153] Memory required for data: 3551658176
I0906 16:06:01.934087  2127 layer_factory.cpp:67] Creating layer scale5a_branch2a
I0906 16:06:01.934116  2127 net.cpp:96] Creating Layer scale5a_branch2a
I0906 16:06:01.934134  2127 net.cpp:444] scale5a_branch2a <- res5a_branch2a
I0906 16:06:01.934165  2127 net.cpp:400] scale5a_branch2a -> res5a_branch2a (in-place)
I0906 16:06:01.934224  2127 layer_factory.cpp:67] Creating layer scale5a_branch2a
I0906 16:06:01.934310  2127 net.cpp:134] Setting up scale5a_branch2a
I0906 16:06:01.934326  2127 net.cpp:142] Top shape: 16 512 7 7 (401408)
I0906 16:06:01.934340  2127 net.cpp:153] Memory required for data: 3553263808
I0906 16:06:01.934375  2127 layer_factory.cpp:67] Creating layer res5a_branch2a_relu
I0906 16:06:01.934401  2127 net.cpp:96] Creating Layer res5a_branch2a_relu
I0906 16:06:01.934417  2127 net.cpp:444] res5a_branch2a_relu <- res5a_branch2a
I0906 16:06:01.934450  2127 net.cpp:400] res5a_branch2a_relu -> res5a_branch2a (in-place)
I0906 16:06:01.934489  2127 net.cpp:134] Setting up res5a_branch2a_relu
I0906 16:06:01.934501  2127 net.cpp:142] Top shape: 16 512 7 7 (401408)
I0906 16:06:01.934515  2127 net.cpp:153] Memory required for data: 3554869440
I0906 16:06:01.934540  2127 layer_factory.cpp:67] Creating layer res5a_branch2b
I0906 16:06:01.934571  2127 net.cpp:96] Creating Layer res5a_branch2b
I0906 16:06:01.934587  2127 net.cpp:444] res5a_branch2b <- res5a_branch2a
I0906 16:06:01.934620  2127 net.cpp:413] res5a_branch2b -> res5a_branch2b
I0906 16:06:01.935866  2214 data_layer.cpp:130] Prefetch batch: 112 ms.
I0906 16:06:01.935912  2214 data_layer.cpp:131]      Read time: 7.051 ms.
I0906 16:06:01.935927  2214 data_layer.cpp:132] Transform time: 104.754 ms.
I0906 16:06:01.947103  2127 net.cpp:134] Setting up res5a_branch2b
I0906 16:06:01.947139  2127 net.cpp:142] Top shape: 16 512 7 7 (401408)
I0906 16:06:01.947154  2127 net.cpp:153] Memory required for data: 3556475072
I0906 16:06:01.947198  2127 layer_factory.cpp:67] Creating layer bn5a_branch2b
I0906 16:06:01.947228  2127 net.cpp:96] Creating Layer bn5a_branch2b
I0906 16:06:01.947248  2127 net.cpp:444] bn5a_branch2b <- res5a_branch2b
I0906 16:06:01.947280  2127 net.cpp:400] bn5a_branch2b -> res5a_branch2b (in-place)
I0906 16:06:01.947366  2127 net.cpp:134] Setting up bn5a_branch2b
I0906 16:06:01.947384  2127 net.cpp:142] Top shape: 16 512 7 7 (401408)
I0906 16:06:01.947398  2127 net.cpp:153] Memory required for data: 3558080704
I0906 16:06:01.947448  2127 layer_factory.cpp:67] Creating layer scale5a_branch2b
I0906 16:06:01.947479  2127 net.cpp:96] Creating Layer scale5a_branch2b
I0906 16:06:01.947496  2127 net.cpp:444] scale5a_branch2b <- res5a_branch2b
I0906 16:06:01.947526  2127 net.cpp:400] scale5a_branch2b -> res5a_branch2b (in-place)
I0906 16:06:01.947587  2127 layer_factory.cpp:67] Creating layer scale5a_branch2b
I0906 16:06:01.947677  2127 net.cpp:134] Setting up scale5a_branch2b
I0906 16:06:01.947696  2127 net.cpp:142] Top shape: 16 512 7 7 (401408)
I0906 16:06:01.947710  2127 net.cpp:153] Memory required for data: 3559686336
I0906 16:06:01.947748  2127 layer_factory.cpp:67] Creating layer res5a_branch2b_relu
I0906 16:06:01.947777  2127 net.cpp:96] Creating Layer res5a_branch2b_relu
I0906 16:06:01.947793  2127 net.cpp:444] res5a_branch2b_relu <- res5a_branch2b
I0906 16:06:01.947824  2127 net.cpp:400] res5a_branch2b_relu -> res5a_branch2b (in-place)
I0906 16:06:01.947854  2127 net.cpp:134] Setting up res5a_branch2b_relu
I0906 16:06:01.947865  2127 net.cpp:142] Top shape: 16 512 7 7 (401408)
I0906 16:06:01.947878  2127 net.cpp:153] Memory required for data: 3561291968
I0906 16:06:01.947903  2127 layer_factory.cpp:67] Creating layer res5a_branch2c
I0906 16:06:01.947933  2127 net.cpp:96] Creating Layer res5a_branch2c
I0906 16:06:01.947949  2127 net.cpp:444] res5a_branch2c <- res5a_branch2b
I0906 16:06:01.947981  2127 net.cpp:413] res5a_branch2c -> res5a_branch2c
I0906 16:06:01.953582  2127 net.cpp:134] Setting up res5a_branch2c
I0906 16:06:01.953614  2127 net.cpp:142] Top shape: 16 2048 7 7 (1605632)
I0906 16:06:01.953629  2127 net.cpp:153] Memory required for data: 3567714496
I0906 16:06:01.953671  2127 layer_factory.cpp:67] Creating layer bn5a_branch2c
I0906 16:06:01.953703  2127 net.cpp:96] Creating Layer bn5a_branch2c
I0906 16:06:01.953722  2127 net.cpp:444] bn5a_branch2c <- res5a_branch2c
I0906 16:06:01.953755  2127 net.cpp:400] bn5a_branch2c -> res5a_branch2c (in-place)
I0906 16:06:01.953842  2127 net.cpp:134] Setting up bn5a_branch2c
I0906 16:06:01.953860  2127 net.cpp:142] Top shape: 16 2048 7 7 (1605632)
I0906 16:06:01.953873  2127 net.cpp:153] Memory required for data: 3574137024
I0906 16:06:01.953924  2127 layer_factory.cpp:67] Creating layer scale5a_branch2c
I0906 16:06:01.953955  2127 net.cpp:96] Creating Layer scale5a_branch2c
I0906 16:06:01.953974  2127 net.cpp:444] scale5a_branch2c <- res5a_branch2c
I0906 16:06:01.954004  2127 net.cpp:400] scale5a_branch2c -> res5a_branch2c (in-place)
I0906 16:06:01.954077  2127 layer_factory.cpp:67] Creating layer scale5a_branch2c
I0906 16:06:01.954188  2127 net.cpp:134] Setting up scale5a_branch2c
I0906 16:06:01.954210  2127 net.cpp:142] Top shape: 16 2048 7 7 (1605632)
I0906 16:06:01.954223  2127 net.cpp:153] Memory required for data: 3580559552
I0906 16:06:01.954262  2127 layer_factory.cpp:67] Creating layer res5a
I0906 16:06:01.954290  2127 net.cpp:96] Creating Layer res5a
I0906 16:06:01.954308  2127 net.cpp:444] res5a <- res5a_branch1
I0906 16:06:01.954332  2127 net.cpp:444] res5a <- res5a_branch2c
I0906 16:06:01.954360  2127 net.cpp:413] res5a -> res5a
I0906 16:06:01.954404  2127 net.cpp:134] Setting up res5a
I0906 16:06:01.954421  2127 net.cpp:142] Top shape: 16 2048 7 7 (1605632)
I0906 16:06:01.954435  2127 net.cpp:153] Memory required for data: 3586982080
I0906 16:06:01.954457  2127 layer_factory.cpp:67] Creating layer res5a_relu
I0906 16:06:01.954483  2127 net.cpp:96] Creating Layer res5a_relu
I0906 16:06:01.954499  2127 net.cpp:444] res5a_relu <- res5a
I0906 16:06:01.954527  2127 net.cpp:400] res5a_relu -> res5a (in-place)
I0906 16:06:01.954556  2127 net.cpp:134] Setting up res5a_relu
I0906 16:06:01.954568  2127 net.cpp:142] Top shape: 16 2048 7 7 (1605632)
I0906 16:06:01.954581  2127 net.cpp:153] Memory required for data: 3593404608
I0906 16:06:01.954602  2127 layer_factory.cpp:67] Creating layer res5a_res5a_relu_0_split
I0906 16:06:01.954627  2127 net.cpp:96] Creating Layer res5a_res5a_relu_0_split
I0906 16:06:01.954643  2127 net.cpp:444] res5a_res5a_relu_0_split <- res5a
I0906 16:06:01.954672  2127 net.cpp:413] res5a_res5a_relu_0_split -> res5a_res5a_relu_0_split_0
I0906 16:06:01.954710  2127 net.cpp:413] res5a_res5a_relu_0_split -> res5a_res5a_relu_0_split_1
I0906 16:06:01.954749  2127 net.cpp:134] Setting up res5a_res5a_relu_0_split
I0906 16:06:01.954764  2127 net.cpp:142] Top shape: 16 2048 7 7 (1605632)
I0906 16:06:01.954779  2127 net.cpp:142] Top shape: 16 2048 7 7 (1605632)
I0906 16:06:01.954792  2127 net.cpp:153] Memory required for data: 3606249664
I0906 16:06:01.954818  2127 layer_factory.cpp:67] Creating layer res5b_branch2a
I0906 16:06:01.954847  2127 net.cpp:96] Creating Layer res5b_branch2a
I0906 16:06:01.954864  2127 net.cpp:444] res5b_branch2a <- res5a_res5a_relu_0_split_0
I0906 16:06:01.954895  2127 net.cpp:413] res5b_branch2a -> res5b_branch2a
I0906 16:06:01.960458  2127 net.cpp:134] Setting up res5b_branch2a
I0906 16:06:01.960489  2127 net.cpp:142] Top shape: 16 512 7 7 (401408)
I0906 16:06:01.960505  2127 net.cpp:153] Memory required for data: 3607855296
I0906 16:06:01.960547  2127 layer_factory.cpp:67] Creating layer bn5b_branch2a
I0906 16:06:01.960579  2127 net.cpp:96] Creating Layer bn5b_branch2a
I0906 16:06:01.960598  2127 net.cpp:444] bn5b_branch2a <- res5b_branch2a
I0906 16:06:01.960631  2127 net.cpp:400] bn5b_branch2a -> res5b_branch2a (in-place)
I0906 16:06:01.960718  2127 net.cpp:134] Setting up bn5b_branch2a
I0906 16:06:01.960736  2127 net.cpp:142] Top shape: 16 512 7 7 (401408)
I0906 16:06:01.960749  2127 net.cpp:153] Memory required for data: 3609460928
I0906 16:06:01.960799  2127 layer_factory.cpp:67] Creating layer scale5b_branch2a
I0906 16:06:01.960830  2127 net.cpp:96] Creating Layer scale5b_branch2a
I0906 16:06:01.960847  2127 net.cpp:444] scale5b_branch2a <- res5b_branch2a
I0906 16:06:01.960877  2127 net.cpp:400] scale5b_branch2a -> res5b_branch2a (in-place)
I0906 16:06:01.960937  2127 layer_factory.cpp:67] Creating layer scale5b_branch2a
I0906 16:06:01.961022  2127 net.cpp:134] Setting up scale5b_branch2a
I0906 16:06:01.961040  2127 net.cpp:142] Top shape: 16 512 7 7 (401408)
I0906 16:06:01.961052  2127 net.cpp:153] Memory required for data: 3611066560
I0906 16:06:01.961087  2127 layer_factory.cpp:67] Creating layer res5b_branch2a_relu
I0906 16:06:01.961113  2127 net.cpp:96] Creating Layer res5b_branch2a_relu
I0906 16:06:01.961130  2127 net.cpp:444] res5b_branch2a_relu <- res5b_branch2a
I0906 16:06:01.961159  2127 net.cpp:400] res5b_branch2a_relu -> res5b_branch2a (in-place)
I0906 16:06:01.961192  2127 net.cpp:134] Setting up res5b_branch2a_relu
I0906 16:06:01.961211  2127 net.cpp:142] Top shape: 16 512 7 7 (401408)
I0906 16:06:01.961225  2127 net.cpp:153] Memory required for data: 3612672192
I0906 16:06:01.961251  2127 layer_factory.cpp:67] Creating layer res5b_branch2b
I0906 16:06:01.961282  2127 net.cpp:96] Creating Layer res5b_branch2b
I0906 16:06:01.961299  2127 net.cpp:444] res5b_branch2b <- res5b_branch2a
I0906 16:06:01.961333  2127 net.cpp:413] res5b_branch2b -> res5b_branch2b
I0906 16:06:01.973702  2127 net.cpp:134] Setting up res5b_branch2b
I0906 16:06:01.973737  2127 net.cpp:142] Top shape: 16 512 7 7 (401408)
I0906 16:06:01.973752  2127 net.cpp:153] Memory required for data: 3614277824
I0906 16:06:01.973793  2127 layer_factory.cpp:67] Creating layer bn5b_branch2b
I0906 16:06:01.973824  2127 net.cpp:96] Creating Layer bn5b_branch2b
I0906 16:06:01.973843  2127 net.cpp:444] bn5b_branch2b <- res5b_branch2b
I0906 16:06:01.973875  2127 net.cpp:400] bn5b_branch2b -> res5b_branch2b (in-place)
I0906 16:06:01.973966  2127 net.cpp:134] Setting up bn5b_branch2b
I0906 16:06:01.973984  2127 net.cpp:142] Top shape: 16 512 7 7 (401408)
I0906 16:06:01.973997  2127 net.cpp:153] Memory required for data: 3615883456
I0906 16:06:01.974048  2127 layer_factory.cpp:67] Creating layer scale5b_branch2b
I0906 16:06:01.974079  2127 net.cpp:96] Creating Layer scale5b_branch2b
I0906 16:06:01.974097  2127 net.cpp:444] scale5b_branch2b <- res5b_branch2b
I0906 16:06:01.974129  2127 net.cpp:400] scale5b_branch2b -> res5b_branch2b (in-place)
I0906 16:06:01.974190  2127 layer_factory.cpp:67] Creating layer scale5b_branch2b
I0906 16:06:01.974282  2127 net.cpp:134] Setting up scale5b_branch2b
I0906 16:06:01.974300  2127 net.cpp:142] Top shape: 16 512 7 7 (401408)
I0906 16:06:01.974314  2127 net.cpp:153] Memory required for data: 3617489088
I0906 16:06:01.974354  2127 layer_factory.cpp:67] Creating layer res5b_branch2b_relu
I0906 16:06:01.974380  2127 net.cpp:96] Creating Layer res5b_branch2b_relu
I0906 16:06:01.974398  2127 net.cpp:444] res5b_branch2b_relu <- res5b_branch2b
I0906 16:06:01.974429  2127 net.cpp:400] res5b_branch2b_relu -> res5b_branch2b (in-place)
I0906 16:06:01.974459  2127 net.cpp:134] Setting up res5b_branch2b_relu
I0906 16:06:01.974472  2127 net.cpp:142] Top shape: 16 512 7 7 (401408)
I0906 16:06:01.974484  2127 net.cpp:153] Memory required for data: 3619094720
I0906 16:06:01.974509  2127 layer_factory.cpp:67] Creating layer res5b_branch2c
I0906 16:06:01.974539  2127 net.cpp:96] Creating Layer res5b_branch2c
I0906 16:06:01.974555  2127 net.cpp:444] res5b_branch2c <- res5b_branch2b
I0906 16:06:01.974586  2127 net.cpp:413] res5b_branch2c -> res5b_branch2c
I0906 16:06:01.980139  2127 net.cpp:134] Setting up res5b_branch2c
I0906 16:06:01.980171  2127 net.cpp:142] Top shape: 16 2048 7 7 (1605632)
I0906 16:06:01.980186  2127 net.cpp:153] Memory required for data: 3625517248
I0906 16:06:01.980228  2127 layer_factory.cpp:67] Creating layer bn5b_branch2c
I0906 16:06:01.980258  2127 net.cpp:96] Creating Layer bn5b_branch2c
I0906 16:06:01.980278  2127 net.cpp:444] bn5b_branch2c <- res5b_branch2c
I0906 16:06:01.980309  2127 net.cpp:400] bn5b_branch2c -> res5b_branch2c (in-place)
I0906 16:06:01.980406  2127 net.cpp:134] Setting up bn5b_branch2c
I0906 16:06:01.980425  2127 net.cpp:142] Top shape: 16 2048 7 7 (1605632)
I0906 16:06:01.980439  2127 net.cpp:153] Memory required for data: 3631939776
I0906 16:06:01.980494  2127 layer_factory.cpp:67] Creating layer scale5b_branch2c
I0906 16:06:01.980525  2127 net.cpp:96] Creating Layer scale5b_branch2c
I0906 16:06:01.980543  2127 net.cpp:444] scale5b_branch2c <- res5b_branch2c
I0906 16:06:01.980574  2127 net.cpp:400] scale5b_branch2c -> res5b_branch2c (in-place)
I0906 16:06:01.980644  2127 layer_factory.cpp:67] Creating layer scale5b_branch2c
I0906 16:06:01.980746  2127 net.cpp:134] Setting up scale5b_branch2c
I0906 16:06:01.980765  2127 net.cpp:142] Top shape: 16 2048 7 7 (1605632)
I0906 16:06:01.980779  2127 net.cpp:153] Memory required for data: 3638362304
I0906 16:06:01.980823  2127 layer_factory.cpp:67] Creating layer res5b
I0906 16:06:01.980861  2127 net.cpp:96] Creating Layer res5b
I0906 16:06:01.980880  2127 net.cpp:444] res5b <- res5a_res5a_relu_0_split_1
I0906 16:06:01.980906  2127 net.cpp:444] res5b <- res5b_branch2c
I0906 16:06:01.980934  2127 net.cpp:413] res5b -> res5b
I0906 16:06:01.980979  2127 net.cpp:134] Setting up res5b
I0906 16:06:01.980996  2127 net.cpp:142] Top shape: 16 2048 7 7 (1605632)
I0906 16:06:01.981010  2127 net.cpp:153] Memory required for data: 3644784832
I0906 16:06:01.981032  2127 layer_factory.cpp:67] Creating layer res5b_relu
I0906 16:06:01.981058  2127 net.cpp:96] Creating Layer res5b_relu
I0906 16:06:01.981075  2127 net.cpp:444] res5b_relu <- res5b
I0906 16:06:01.981103  2127 net.cpp:400] res5b_relu -> res5b (in-place)
I0906 16:06:01.981132  2127 net.cpp:134] Setting up res5b_relu
I0906 16:06:01.981144  2127 net.cpp:142] Top shape: 16 2048 7 7 (1605632)
I0906 16:06:01.981158  2127 net.cpp:153] Memory required for data: 3651207360
I0906 16:06:01.981178  2127 layer_factory.cpp:67] Creating layer res5b_res5b_relu_0_split
I0906 16:06:01.981204  2127 net.cpp:96] Creating Layer res5b_res5b_relu_0_split
I0906 16:06:01.981220  2127 net.cpp:444] res5b_res5b_relu_0_split <- res5b
I0906 16:06:01.981250  2127 net.cpp:413] res5b_res5b_relu_0_split -> res5b_res5b_relu_0_split_0
I0906 16:06:01.981287  2127 net.cpp:413] res5b_res5b_relu_0_split -> res5b_res5b_relu_0_split_1
I0906 16:06:01.981325  2127 net.cpp:134] Setting up res5b_res5b_relu_0_split
I0906 16:06:01.981341  2127 net.cpp:142] Top shape: 16 2048 7 7 (1605632)
I0906 16:06:01.981355  2127 net.cpp:142] Top shape: 16 2048 7 7 (1605632)
I0906 16:06:01.981369  2127 net.cpp:153] Memory required for data: 3664052416
I0906 16:06:01.981393  2127 layer_factory.cpp:67] Creating layer res5c_branch2a
I0906 16:06:01.981423  2127 net.cpp:96] Creating Layer res5c_branch2a
I0906 16:06:01.981439  2127 net.cpp:444] res5c_branch2a <- res5b_res5b_relu_0_split_0
I0906 16:06:01.981472  2127 net.cpp:413] res5c_branch2a -> res5c_branch2a
I0906 16:06:01.987073  2127 net.cpp:134] Setting up res5c_branch2a
I0906 16:06:01.987107  2127 net.cpp:142] Top shape: 16 512 7 7 (401408)
I0906 16:06:01.987121  2127 net.cpp:153] Memory required for data: 3665658048
I0906 16:06:01.987164  2127 layer_factory.cpp:67] Creating layer bn5c_branch2a
I0906 16:06:01.987195  2127 net.cpp:96] Creating Layer bn5c_branch2a
I0906 16:06:01.987215  2127 net.cpp:444] bn5c_branch2a <- res5c_branch2a
I0906 16:06:01.987246  2127 net.cpp:400] bn5c_branch2a -> res5c_branch2a (in-place)
I0906 16:06:01.987326  2127 net.cpp:134] Setting up bn5c_branch2a
I0906 16:06:01.987341  2127 net.cpp:142] Top shape: 16 512 7 7 (401408)
I0906 16:06:01.987354  2127 net.cpp:153] Memory required for data: 3667263680
I0906 16:06:01.987401  2127 layer_factory.cpp:67] Creating layer scale5c_branch2a
I0906 16:06:01.987431  2127 net.cpp:96] Creating Layer scale5c_branch2a
I0906 16:06:01.987447  2127 net.cpp:444] scale5c_branch2a <- res5c_branch2a
I0906 16:06:01.987476  2127 net.cpp:400] scale5c_branch2a -> res5c_branch2a (in-place)
I0906 16:06:01.987546  2127 layer_factory.cpp:67] Creating layer scale5c_branch2a
I0906 16:06:01.987644  2127 net.cpp:134] Setting up scale5c_branch2a
I0906 16:06:01.987661  2127 net.cpp:142] Top shape: 16 512 7 7 (401408)
I0906 16:06:01.987675  2127 net.cpp:153] Memory required for data: 3668869312
I0906 16:06:01.987710  2127 layer_factory.cpp:67] Creating layer res5c_branch2a_relu
I0906 16:06:01.987737  2127 net.cpp:96] Creating Layer res5c_branch2a_relu
I0906 16:06:01.987756  2127 net.cpp:444] res5c_branch2a_relu <- res5c_branch2a
I0906 16:06:01.987784  2127 net.cpp:400] res5c_branch2a_relu -> res5c_branch2a (in-place)
I0906 16:06:01.987814  2127 net.cpp:134] Setting up res5c_branch2a_relu
I0906 16:06:01.987826  2127 net.cpp:142] Top shape: 16 512 7 7 (401408)
I0906 16:06:01.987839  2127 net.cpp:153] Memory required for data: 3670474944
I0906 16:06:01.987864  2127 layer_factory.cpp:67] Creating layer res5c_branch2b
I0906 16:06:01.987893  2127 net.cpp:96] Creating Layer res5c_branch2b
I0906 16:06:01.987913  2127 net.cpp:444] res5c_branch2b <- res5c_branch2a
I0906 16:06:01.987957  2127 net.cpp:413] res5c_branch2b -> res5c_branch2b
I0906 16:06:02.000310  2127 net.cpp:134] Setting up res5c_branch2b
I0906 16:06:02.000344  2127 net.cpp:142] Top shape: 16 512 7 7 (401408)
I0906 16:06:02.000358  2127 net.cpp:153] Memory required for data: 3672080576
I0906 16:06:02.000401  2127 layer_factory.cpp:67] Creating layer bn5c_branch2b
I0906 16:06:02.000433  2127 net.cpp:96] Creating Layer bn5c_branch2b
I0906 16:06:02.000452  2127 net.cpp:444] bn5c_branch2b <- res5c_branch2b
I0906 16:06:02.000484  2127 net.cpp:400] bn5c_branch2b -> res5c_branch2b (in-place)
I0906 16:06:02.000571  2127 net.cpp:134] Setting up bn5c_branch2b
I0906 16:06:02.000587  2127 net.cpp:142] Top shape: 16 512 7 7 (401408)
I0906 16:06:02.000602  2127 net.cpp:153] Memory required for data: 3673686208
I0906 16:06:02.000653  2127 layer_factory.cpp:67] Creating layer scale5c_branch2b
I0906 16:06:02.000684  2127 net.cpp:96] Creating Layer scale5c_branch2b
I0906 16:06:02.000701  2127 net.cpp:444] scale5c_branch2b <- res5c_branch2b
I0906 16:06:02.000731  2127 net.cpp:400] scale5c_branch2b -> res5c_branch2b (in-place)
I0906 16:06:02.000792  2127 layer_factory.cpp:67] Creating layer scale5c_branch2b
I0906 16:06:02.000877  2127 net.cpp:134] Setting up scale5c_branch2b
I0906 16:06:02.000893  2127 net.cpp:142] Top shape: 16 512 7 7 (401408)
I0906 16:06:02.000907  2127 net.cpp:153] Memory required for data: 3675291840
I0906 16:06:02.000942  2127 layer_factory.cpp:67] Creating layer res5c_branch2b_relu
I0906 16:06:02.000968  2127 net.cpp:96] Creating Layer res5c_branch2b_relu
I0906 16:06:02.000985  2127 net.cpp:444] res5c_branch2b_relu <- res5c_branch2b
I0906 16:06:02.001014  2127 net.cpp:400] res5c_branch2b_relu -> res5c_branch2b (in-place)
I0906 16:06:02.001042  2127 net.cpp:134] Setting up res5c_branch2b_relu
I0906 16:06:02.001055  2127 net.cpp:142] Top shape: 16 512 7 7 (401408)
I0906 16:06:02.001068  2127 net.cpp:153] Memory required for data: 3676897472
I0906 16:06:02.001091  2127 layer_factory.cpp:67] Creating layer res5c_branch2c
I0906 16:06:02.001121  2127 net.cpp:96] Creating Layer res5c_branch2c
I0906 16:06:02.001137  2127 net.cpp:444] res5c_branch2c <- res5c_branch2b
I0906 16:06:02.001169  2127 net.cpp:413] res5c_branch2c -> res5c_branch2c
I0906 16:06:02.006762  2127 net.cpp:134] Setting up res5c_branch2c
I0906 16:06:02.006795  2127 net.cpp:142] Top shape: 16 2048 7 7 (1605632)
I0906 16:06:02.006811  2127 net.cpp:153] Memory required for data: 3683320000
I0906 16:06:02.006852  2127 layer_factory.cpp:67] Creating layer bn5c_branch2c
I0906 16:06:02.006883  2127 net.cpp:96] Creating Layer bn5c_branch2c
I0906 16:06:02.006902  2127 net.cpp:444] bn5c_branch2c <- res5c_branch2c
I0906 16:06:02.006935  2127 net.cpp:400] bn5c_branch2c -> res5c_branch2c (in-place)
I0906 16:06:02.007022  2127 net.cpp:134] Setting up bn5c_branch2c
I0906 16:06:02.007040  2127 net.cpp:142] Top shape: 16 2048 7 7 (1605632)
I0906 16:06:02.007055  2127 net.cpp:153] Memory required for data: 3689742528
I0906 16:06:02.007105  2127 layer_factory.cpp:67] Creating layer scale5c_branch2c
I0906 16:06:02.007136  2127 net.cpp:96] Creating Layer scale5c_branch2c
I0906 16:06:02.007154  2127 net.cpp:444] scale5c_branch2c <- res5c_branch2c
I0906 16:06:02.007185  2127 net.cpp:400] scale5c_branch2c -> res5c_branch2c (in-place)
I0906 16:06:02.007259  2127 layer_factory.cpp:67] Creating layer scale5c_branch2c
I0906 16:06:02.007364  2127 net.cpp:134] Setting up scale5c_branch2c
I0906 16:06:02.007381  2127 net.cpp:142] Top shape: 16 2048 7 7 (1605632)
I0906 16:06:02.007395  2127 net.cpp:153] Memory required for data: 3696165056
I0906 16:06:02.007431  2127 layer_factory.cpp:67] Creating layer res5c
I0906 16:06:02.007458  2127 net.cpp:96] Creating Layer res5c
I0906 16:06:02.007477  2127 net.cpp:444] res5c <- res5b_res5b_relu_0_split_1
I0906 16:06:02.007499  2127 net.cpp:444] res5c <- res5c_branch2c
I0906 16:06:02.007527  2127 net.cpp:413] res5c -> res5c
I0906 16:06:02.007570  2127 net.cpp:134] Setting up res5c
I0906 16:06:02.007591  2127 net.cpp:142] Top shape: 16 2048 7 7 (1605632)
I0906 16:06:02.007612  2127 net.cpp:153] Memory required for data: 3702587584
I0906 16:06:02.007637  2127 layer_factory.cpp:67] Creating layer res5c_relu
I0906 16:06:02.007663  2127 net.cpp:96] Creating Layer res5c_relu
I0906 16:06:02.007680  2127 net.cpp:444] res5c_relu <- res5c
I0906 16:06:02.007710  2127 net.cpp:400] res5c_relu -> res5c (in-place)
I0906 16:06:02.007740  2127 net.cpp:134] Setting up res5c_relu
I0906 16:06:02.007751  2127 net.cpp:142] Top shape: 16 2048 7 7 (1605632)
I0906 16:06:02.007766  2127 net.cpp:153] Memory required for data: 3709010112
I0906 16:06:02.007788  2127 layer_factory.cpp:67] Creating layer pool5
I0906 16:06:02.007819  2127 net.cpp:96] Creating Layer pool5
I0906 16:06:02.007835  2127 net.cpp:444] pool5 <- res5c
I0906 16:06:02.007867  2127 net.cpp:413] pool5 -> pool5
I0906 16:06:02.007966  2127 net.cpp:134] Setting up pool5
I0906 16:06:02.007987  2127 net.cpp:142] Top shape: 16 2048 1 1 (32768)
I0906 16:06:02.008000  2127 net.cpp:153] Memory required for data: 3709141184
I0906 16:06:02.008030  2127 layer_factory.cpp:67] Creating layer fc1000
I0906 16:06:02.008059  2127 net.cpp:96] Creating Layer fc1000
I0906 16:06:02.008076  2127 net.cpp:444] fc1000 <- pool5
I0906 16:06:02.008111  2127 net.cpp:413] fc1000 -> fc1000
I0906 16:06:02.009930  2214 data_layer.cpp:130] Prefetch batch: 73 ms.
I0906 16:06:02.009971  2214 data_layer.cpp:131]      Read time: 6.556 ms.
I0906 16:06:02.009984  2214 data_layer.cpp:132] Transform time: 67.021 ms.
I0906 16:06:02.080052  2214 data_layer.cpp:130] Prefetch batch: 70 ms.
I0906 16:06:02.080090  2214 data_layer.cpp:131]      Read time: 6.469 ms.
I0906 16:06:02.080103  2214 data_layer.cpp:132] Transform time: 63.187 ms.
I0906 16:06:02.150014  2214 data_layer.cpp:130] Prefetch batch: 69 ms.
I0906 16:06:02.150051  2214 data_layer.cpp:131]      Read time: 6.556 ms.
I0906 16:06:02.150064  2214 data_layer.cpp:132] Transform time: 62.948 ms.
I0906 16:06:02.253554  2127 net.cpp:134] Setting up fc1000
I0906 16:06:02.253594  2127 net.cpp:142] Top shape: 16 1000 (16000)
I0906 16:06:02.253612  2127 net.cpp:153] Memory required for data: 3709205184
I0906 16:06:02.253676  2127 layer_factory.cpp:67] Creating layer fc1000_fc1000_0_split
I0906 16:06:02.253712  2127 net.cpp:96] Creating Layer fc1000_fc1000_0_split
I0906 16:06:02.253734  2127 net.cpp:444] fc1000_fc1000_0_split <- fc1000
I0906 16:06:02.253774  2127 net.cpp:413] fc1000_fc1000_0_split -> fc1000_fc1000_0_split_0
I0906 16:06:02.253818  2127 net.cpp:413] fc1000_fc1000_0_split -> fc1000_fc1000_0_split_1
I0906 16:06:02.253857  2127 net.cpp:134] Setting up fc1000_fc1000_0_split
I0906 16:06:02.253873  2127 net.cpp:142] Top shape: 16 1000 (16000)
I0906 16:06:02.253886  2127 net.cpp:142] Top shape: 16 1000 (16000)
I0906 16:06:02.253898  2127 net.cpp:153] Memory required for data: 3709333184
I0906 16:06:02.253927  2127 layer_factory.cpp:67] Creating layer accuracy/top-1
I0906 16:06:02.253965  2127 net.cpp:96] Creating Layer accuracy/top-1
I0906 16:06:02.253983  2127 net.cpp:444] accuracy/top-1 <- fc1000_fc1000_0_split_0
I0906 16:06:02.254005  2127 net.cpp:444] accuracy/top-1 <- label_data_1_split_0
…
